project-2-continuous-control/checkpoint.pth (torch_old, 28189 bytes, 8 tensors)

std f4 [1, 4]
-0.30309933 -0.25778046 -0.43594515 -0.38285485
00000000: d62f 9bbe cdfb 83be 3434 dfbe 8d05 c4be

base.0.0.weight f4 [64, 33]
-0.22421269 -0.08533695 -0.21957484 0.09363518 0.029179808 -0.018112302 -0.054708887 -0.07611707
-0.11955643 -0.18076232 -0.028151706 -0.030659627 -0.087141596 0.105513774 0.05844956 0.1479734
0.08061484 0.023358615 0.026601827 0.043950494 -0.043269675 -0.05003529 0.074183285 0.08000378
-0.08143026 0.07906732 0.22333825 -0.080970034 0.11843442 0.14083168 -0.0902679 -0.047391593
-0.050810657 0.0747127 -0.1639089 0.17177229 0.15603472 0.048178352 -0.14857233 0.01793091
0.06789388 0.06935076 -0.13481896 0.03787153 0.14263386 0.09592662 0.17447159 0.0035775704
-0.27705285 0.044352658 0.04857854 0.024931135 0.027738696 0.12752871 0.065801084 0.046060864
0.0484923 0.015289191 -0.09004044 -0.13161534 -0.17952259 0.13414153 -0.04606004 0.020971755
0.08796576 -0.23350464 -0.17347611 -0.046275694 0.05086513 0.16323322 -0.115992814 0.1848107
-0.072640434 0.18193115 0.14113739 -0.089812495 0.023816526 0.20889643 -0.17205124 0.21039031
0.13142912 -0.05666078 -0.0073750783 0.056086745 0.030870637 0.124898836 -0.0020615961 0.21709627
-0.11010728 -0.052981146 0.003715748 0.20772305 0.06459967 0.061732285 -0.042743515 0.12927395
0.24391204 0.07385188 -0.017525163 -0.041706048 0.06105653 -0.1612089 -0.030506631 -0.08351479
0.0060978876 0.05256934 -0.0040027876 0.21712252 0.03907304 -0.07436916 0.14465472 0.057396047
-0.106966354 0.018369313 0.15351334 0.13542676 0.06361406 0.12994304 0.11194644 0.08812638
-0.04957766 0.058172673 -0.0031288406 0.1935728 0.0065371306 0.08024965 -0.024633318 -0.17451155
-0.043817267 -0.0978252 0.047580928 0.11741316 0.00085980224 -0.15952867 -0.0011008356 0.16448233
0.11987471 0.19992653 -0.032430712 0.20406368 -0.0059284475 0.029297007 0.070568144 -0.010311866
-0.015506245 0.103061035 0.12656371 -0.084660634 0.10296944 -0.017184734 -0.083610706 -0.055240057
-0.052895714 -0.13789162 0.046354678 -0.08091377 0.06900134 0.06351618 0.075717896 0.0030566263
-0.17032297 0.1660673 0.048348326 0.10313028 0.04122343 -0.061872497 0.1754254 -0.014993279
-0.110805705 -0.006321972 -0.027540464 -0.004050728 0.1531892 -0.006134275 -0.010917442 -0.0106160445
-0.21182516 0.043733746 0.044371936 -0.091766834 0.1342449 0.12506905 0.022310743 0.14291534
0.008742031 0.04516171 0.1256868 0.015242622 0.1800865 -0.1557821 -0.11283354 0.06857258
-0.018137619 0.087445974 -0.12611566 -0.1395601 0.103563815 -0.08587848 -0.11001143 0.113140434
-0.006050129 -0.16263676 -0.059517093 -0.13630408 0.16856281 0.06157357 -0.09809136 0.07596064
0.12147433 -0.07850137 0.0038729717 0.055482917 0.11240636 0.002702744 0.051714838 -0.06968612
-0.07648241 -0.09744325 0.053346533 -0.1560902 -0.0011737967 0.18500137 -0.07155074 -0.011456217
0.17806743 0.120660976 0.0010142134 -0.02272518 0.0062979073 0.13104033 -0.20032686 0.14508498
-0.20620394 0.027492266 0.15646276 -0.014340655 -0.08563619 -0.12891941 0.14986941 0.14531676
0.11664122 0.13967757 -0.14017707 0.03127044 0.14098717 0.118583 0.15437846 0.022791293
-0.08767942 0.013193174 -0.02787249 0.08062267 0.20789398 0.103296526 -0.044191625 0.018965418
00000000: 0398 65be 24c5 aebd 3ad8 60be cdc3 bf3d
00000010: 7e0a ef3c 4060 94bc 6d16 60bd 44e3 9bbd
00000020: 00da f4bd c219 39be 689e e6bc e629 fbbc
00000030: 4b77 b2bd 9b17 d83d ce68 6f3d 5786 173e
00000040: 6519 a53d 915a bf3c 13ec d93c 6f05 343d
00000050: 8b3b 31bd cef1 4cbd 68ed 973d 06d9 a33d
00000060: e8c4 a6bd 0cee a13d c8b2 643e 9ed3 a5bd
00000070: bf8d f23d 2e36 103e 60de b8bd b01d 42bd
00000080: d61e 50bd f902 993d bcd7 27be 13e5 2f3e
00000090: 91c7 1f3e aa56 453d 5823 18be d8e3 923c
000000a0: f20b 8b3d c507 8e3d fb0d 0abe 2d1f 1b3d
000000b0: 9c0e 123e 2d75 c43d aea8 323e ac75 6a3b
000000c0: dfd9 8dbe 22ab 353d 4bfa 463d 613c cc3c
000000d0: 433c e33c e396 023e b8c2 863d 51aa 3c3d
000000e0: dd9f 463d 847f 7a3c 1f67 b8bd 2cc6 06be
000000f0: c5d4 37be 665c 093e 74a9 3cbd f5cc ab3c
00000100: 6427 b43d d71b 6fbe b9a3 31be 958b 3dbd
00000110: f457 503d 9c26 273e a48d edbd 043f 3d3e
00000120: 82c4 94bd 294c 3a3e 5286 103e 9def b7bd
00000130: e01a c33c f2e8 553e 332e 30be 8f70 573e
00000140: 5b95 063e 2215 68bd a4aa f1bb 37bb 653d
00000150: 6be4 fc3c f6ca ff3d d81b 07bb 7c4e 5e3e
00000160: ed7f e1bd c202 59bd e883 733b 5ab5 543e
00000170: d54c 843d feda 7c3d d313 2fbd 6460 043e
00000180: 14c4 793e a83f 973d ee90 8fbc f6d3 2abd
00000190: 6916 7a3d f213 25be 0be9 f9bc cd09 abbd
000001a0: cad0 c73b f352 573d d129 83bb 5e55 5e3e
000001b0: 0d0b 203d dc4e 98bd 5e20 143e 1e18 6b3d
000001c0: 2d11 dbbd 3e7b 963c 9a32 1d3e 50ad 0a3e
000001d0: 1748 823d ca0f 053e 2d44 e53d 9b7b b43d
000001e0: f211 4bbd 7846 6e3d 3c0d 4dbb f337 463e
000001f0: 6d35 d63b ee59 a43d d0cb c9bc 28b3 32be
00000200: bc79 33bd 9458 c8bd 38e4 423d 5076 f03d
00000210: 5a64 613a 7c5b 23be ea49 90ba 0e6e 283e
00000220: df80 f53d 8ab9 4c3e 11d6 04bd 12f6 503e
00000230: 6c43 c2bb 4700 f03c 0886 903d 1af3 28bc
00000240: e80d 7ebc aa11 d33d eb99 013e 8e62 adbd
00000250: a4e1 d23d 00c7 8cbc 173c abbd 6643 62bd
00000260: 2da9 58bd 7633 0dbe 67de 3d3d 1eb6 a5bd
00000270: 9350 8d3d c514 823d fc11 9b3d ae51 483b
00000280: 2569 2ebe 8c0d 2a3e e508 463d f835 d33d
00000290: e6d9 283d 046e 7dbd b7a2 333e 5fa6 75bc
000002a0: 1aee e2bd 8b28 cfbb 8a9c e1bc f8bb 84bb
000002b0: a1dd 1c3e 0702 c9bb 12df 32bc ebee 2dbc
000002c0: b2e8 58be 2822 333d 59bf 353d 40f0 bbbd
000002d0: 7f77 093e 1a12 003e 05c5 b63c 6658 123e
000002e0: bc3a 0f3c 7cfb 383d 0ab4 003e 31bc 793c
000002f0: 9868 383e 5885 1fbe 4515 e7bd c86f 8c3d
00000300: 5895 94bc e016 b33d 7724 01be d8e8 0ebe
00000310: 4419 d43d 0ee1 afbd ac4d e1bd 2cb6 e73d
00000320: 2940 c6bb 408a 26be 32c8 73bd 4c93 0bbe
00000330: bb9b 2c3e 9134 7c3d 1fe4 c8bd 4191 9b3d
00000340: 89c7 f83d 54c5 a0bd afd1 7d3b 0e42 633d
00000350: 4e35 e63d 8520 313b f0d2 533d 99b7 8ebd
00000360: cfa2 9cbd 5490 c7bd e581 5a3d 1cd6 1fbe
00000370: 15da 99ba 0071 3d3e 3289 92bd dbb2 3bbc
00000380: 4f57 363e 1a1d f73d 5bef 843a 282a babc
00000390: ad5e ce3b 702f 063e 7c22 4dbe 2891 143e
000003a0: 2027 53be 7637 e13c c637 203e 11f5 6abc
000003b0: 0762 afbd 7303 04be 5e77 193e ebcd 143e
000003c0: 98e1 ee3d a307 0f3e 948a 0fbe 6f15 003d
000003d0: f15e 103e a5db f23d 6315 1e3e ceb4 ba3c
000003e0: 4591 b3bd 2f28 583c d954 e4bc 801d a53d
000003f0: 29e2 543e 218d d33d 4702 35bd 5d5d 9b3c

base.0.0.bias f4 [64]
0.14195594 0.07553138 0.13457997 0.16651064 -0.074353695 -0.18827017 0.012312621 0.12971418
-0.029911816 0.2231119 -0.04701298 -0.10302331 0.041383654 0.07598082 0.13547368 0.044044696
0.16169083 0.17844154 0.105184935 0.038605236 0.15392789 0.06724483 0.21269532 0.06094036
-0.040014543 0.021116588 0.0061458247 0.12971108 -0.018068071 0.02168356 0.113720596 -0.0730484
-0.006042524 0.13007873 0.0012166597 -0.106608756 0.1725458 -0.0860372 0.13301793 0.17296565
0.09689356 0.12551546 0.21966083 -0.078844585 0.18753162 0.18599331 -0.03661566 0.21228054
0.1529387 -0.040820234 0.0774343 0.15612027 0.048573308 0.13368267 0.2139919 0.091025576
0.15196194 -0.010572224 -0.0036056489 0.25547075 0.20071582 0.26963326 0.025918111 0.14568514
00000000: e65c 113e 32b0 9a3d 55cf 093e c481 2a3e
00000010: c046 98bd e5c9 40be e0ba 493c cbd3 043e
00000020: a009 f5bc 7277 643e af90 40bd e3fd d2bd
00000030: e881 293d d59b 9b3d 9db9 0a3e 3668 343d
00000040: 4892 253e 61b9 363e 336b d73d 8620 1e3d
00000050: 469f 1d3e a8b7 893d cdcc 593e 999c 793d
00000060: 4ae6 23bd b2fc ac3c ea62 c93b fbd2 043e
00000070: 7e03 94bc b9a1 b13c 58e6 e83d 669a 95bd
00000080: 5d00 c6bb 5c33 053e 5378 9f3a b155 dabd
00000090: d9af 303e 4634 b0bd da35 083e e81d 313e
000000a0: 2170 c63d 2087 003e c5ee 603e 4579 a1bd
000000b0: 4a08 403e 0875 3e3e 4dfa 15bd 1260 593e
000000c0: f69b 1c3e 1e33 27bd e095 9e3d fedd 1f3e
000000d0: cef4 463d 1ce4 083e b120 5b3e 9e6b ba3d
000000e0: e99b 1b3e 1f37 2dbc c04c 6cbb 10cd 823e
000000f0: 7388 4d3e 5f0d 8a3e 3852 d43c 7c2e 153e

base.1.0.weight f4 [64, 64]
-0.013026656 0.049685545 -0.10656624 -0.08931309 -0.0631894 -0.026958773 -0.046978537 -0.18770532
0.09277359 -0.04489527 -0.029476898 0.048702136 0.07955316 -0.034818184 -0.0988817 -0.027581602
-0.06572275 0.12753609 0.019542055 0.01710868 0.07520689 -0.06400532 0.12645291 0.03396055
0.021849684 0.02812951 0.0993214 0.031739257 0.004091774 -0.030796632 0.047413047 -0.060235042
-0.036043674 -0.19999224 0.20288542 -0.06452683 0.16430421 0.037615985 0.059146985 -0.12684138
-0.08885856 -0.090473294 -0.0060498985 -0.253895 0.04829916 0.005753937 0.12829079 0.10886206
-0.09159909 -0.0724538 -0.08628398 0.0114604775 0.03162524 -0.07262458 -0.058673214 0.004060201
0.014088742 -0.031651415 -0.035262894 0.06012276 -0.051524088 -0.12768418 0.072026074 0.13923271
0.09572181 -0.14228208 0.1478366 0.12628569 -0.0053497376 0.00011187018 -0.116072804 -0.03441887
-0.07166773 0.025642164 0.11777192 -0.104059525 0.066344626 0.056067336 0.07869399 0.19536719
-0.02786456 0.07044858 0.03959329 0.123843 0.120083876 0.12317516 0.109900124 -0.022260474
-0.03412492 0.016684161 -0.12519975 -0.0016065157 0.08967947 -0.07403139 -0.011390058 0.15827808
0.13548416 -0.06793549 0.015605732 0.062578365 -0.05293285 0.01657883 -0.1267756 -0.1117854
-0.0801198 0.049470652 0.037688967 0.13894889 0.10842105 0.08558115 0.016470285 0.10675513
0.07675598 0.044451322 0.14144099 0.119141325 -0.01265575 -0.06015697 0.05293429 0.08404496
-0.092524484 -0.00272432 0.12778318 0.02793204 -0.0046957047 0.09669417 0.10103044 -0.10271725
0.064609565 -0.072694905 -0.02287019 -0.07893222 -0.119492054 0.04264032 0.0012607422 -0.06279607
-0.050471194 -0.08659549 0.03126252 -0.059744183 0.004128368 -0.044670586 0.029053476 0.16316596
0.14866342 0.04695986 0.043992896 0.037605517 0.043422185 -0.004717011 0.010918441 0.08493491
-0.07920747 0.04804938 0.07311459 -0.1234418 -0.09603884 -0.018903878 0.08672814 0.10779542
0.028261714 0.022313606 0.010362807 -0.081395276 -0.061254125 -0.15156311 0.14567024 0.015406861
-0.04587458 -0.15372434 0.12602973 0.049161576 -0.030048462 0.16063614 -0.09496332 0.07831201
-0.029085146 0.17938033 -0.12387125 -0.04188124 0.112581976 -0.076247126 0.16161494 0.06732001
0.06235861 -0.08063223 -0.045396857 0.022058098 0.04925417 -0.041571014 -0.054244824 0.14387397
0.10314305 -0.14272477 0.07216618 -0.020939536 0.05564054 -0.012127746 -0.1327528 -0.04316725
-0.20791265 0.09395091 0.06240496 0.04898515 -0.13466655 0.064932875 0.05349788 0.13446124
-0.021365792 0.016045444 -0.17893697 -0.07857367 -0.05556004 0.09584233 -0.11464275 0.08639011
0.09879026 -0.084334545 0.03383804 0.011906521 -0.0444132 -0.123300456 -0.008035844 0.046040606
-0.11066912 -0.026243225 -0.10195476 0.08319824 0.12840447 0.098198995 0.030080486 0.17155139
-0.094532646 -0.07849587 -0.043158595 0.24731265 -0.043846026 0.0034589672 -0.06239152 0.09856078
0.053400584 -0.036753904 0.14497705 0.022776103 -0.06587119 -0.069735885 0.06471549 -0.07568429
-0.038966198 0.20037809 -0.058117446 -0.040627576 -0.10491722 0.010291503 -0.015038006 -0.10266413
00000000: c16d 55bc 1283 4b3d 673f dabd c8e9 b6bd
00000010: 7269 81bd a5d8 dcbc 916c 40bd d335 40be
00000020: 1400 be3d 1ae4 37bd 8979 f1bc e47b 473d
00000030: c4ec a23d 839d 0ebd 7d82 cabd d0f2 e1bc
00000040: a699 86bd d298 023e a916 a03c 8127 8c3c
00000050: 1206 9a3d 3915 83bd df7c 013e 381a 0b3d
00000060: 1cfe b23c dc6f e63c 0569 cb3d 0601 023d
00000070: 4a14 863b 3849 fcbc 2f34 423d 05b9 76bd
00000080: 88a2 13bd c4ca 4cbe 32c1 4f3e a526 84bd
00000090: 5d3f 283e 3813 1a3d 1c44 723d b5e2 01be
000000a0: 7afb b5bd 104a b9bd 3a3e c6bb 87fe 81be
000000b0: 57d5 453d 868b bc3b a95e 033e 12f3 de3d
000000c0: 4e98 bbbd a862 94bd a8b5 b0bd bac4 3b3c
000000d0: 7889 013d 32bc 94bd 5353 70bd 6f0b 853b
000000e0: 78d4 663c eaa4 01bd d36f 10bd 4843 763d
000000f0: ec0a 53bd a4bf 02be 6882 933d 0593 0e3e
00000100: cc09 c43d 65b2 11be 7a62 173e 0951 013e
00000110: da4c afbb d89b ea38 94b7 edbd cdfa 0cbd
00000120: 88c6 92bd 840f d23c 6832 f13d 291d d5bd
00000130: b1df 873d dda6 653d 512a a13d 560e 483e
00000140: 3844 e4bc 5847 903d 932c 223d 66a1 fd3d
00000150: 89ee f53d 4243 fc3d 5113 e13d 995b b6bc
00000160: 92c6 0bbd 39ad 883c 5d34 00be b991 d2ba
00000170: dfa9 b73d c59d 97bd 5e9d 3abc a613 223e
00000180: 5cbc 0a3e c321 8bbd 2faf 7f3c 1629 803d
00000190: 1ed0 58bd 54d0 873c 76d1 01be beef e4bd
000001a0: da15 a4bd bda1 4a3d bf5f 1a3d 9e48 0e3e
000001b0: db0b de3d 2c45 af3d b1ec 863c 6fa2 da3d
000001c0: 3d32 9d3d 9712 363d e8d5 103e 5e00 f43d
000001d0: 105a 4fbc 2867 76bd a0d1 583d c41f ac3d
000001e0: 7a7d bdbd 818a 32bb 98d9 023e bcd1 e43c
000001f0: 6dde 99bb 9807 c63d 0ce9 ce3d 6c5d d2bd
00000200: 0552 843d 11e1 94bd 445a bbbc 37a7 a1bd
00000210: 40b8 f4bd 9ea7 2e3d 7d3f a53a 3a9b 80bd
00000220: e2ba 4ebd fa58 b1bd 210d 003d 51b6 74bd
00000230: 4347 873b 81f8 36bd 8e01 ee3c fa14 273e
00000240: 393b 183e fb58 403d e531 343d 3e08 1a3d
00000250: 76db 313d 2891 9abb 43e3 323c 5bf2 ad3d
00000260: 8737 a2bd 6dcf 443d 1abd 953d 0ecf fcbd
00000270: 03b0 c4bd 4edc 9abc 869e b13d d8c3 dc3d
00000280: 1c85 e73c 06cb b63c c3c8 293c 91b2 a6bd
00000290: 9be5 7abd 5c33 1bbe 942a 153e 0f6d 7c3c
000002a0: fce6 3bbd ea69 1dbe f00d 013e a65d 493d
000002b0: 3128 f6bc cd7d 243e 217c c2bd 0c62 a03d
000002c0: f943 eebc 7aaf 373e 36b0 fdbd aa8b 2bbd
000002d0: 6191 e63d 7427 9cbd 637e 253e 13df 893d
000002e0: be6b 7f3d 8322 a5bd 0ef2 39bd 2fb3 b43c
000002f0: bebe 493d 5e46 2abd d22f 5ebd b353 133e
00000300: aa3c d33d 7126 12be ddcb 933d 6489 abbc
00000310: 56e7 633d 74b3 46bc 5af0 07be 24d0 30bd
00000320: 0ee7 54be 5669 c03d 589c 7f3d a7a4 483d
00000330: 07e6 09be 87fb 843d 9820 5b3d 35b0 093e
00000340: 5007 afbc bc71 833c 413b 37be 3beb a0bd
00000350: ed92 63bd fc48 c43d d1c9 eabd 4ced b03d
00000360: 8c52 ca3d 97b7 acbd c299 0a3d 9213 433c
00000370: 9eea 35bd f384 fcbd c6a8 03bc 1395 3c3d
00000380: 7ea6 e2bd 08fc d6bc a8cd d0bd d763 aa3d
00000390: 767c 033e 8e1c c93d 5a6b f63c 2bab 2f3e
000003a0: 559a c1bd 71c2 a0bd 11c7 30bd 873f 7d3e
000003b0: e497 33bd d7af 623b 408e 7fbd 3cda c93d
000003c0: 92ba 5a3d 438b 16bd dd74 143e f394 ba3c
000003d0: 79e7 86bd b0d1 8ebd 8e89 843d 5d00 9bbd
000003e0: 059b 1fbd ea2f 4d3e 8f0c 6ebd 1a69 26bd
000003f0: d7de d6bd b19d 283c f861 76bc 9241 d2bd

base.1.0.bias f4 [64]
0.06839471 -0.0054453127 -0.017738752 0.06989499 0.0416279 -0.03939138 0.014686986 -0.07917613
0.08109574 0.061675783 0.05762854 0.030544449 -0.066905804 -0.100708134 -0.058688216 -0.0112253865
-0.04985119 0.051272005 0.055744983 0.06702677 0.06120666 -0.043813292 0.15486431 0.042046532
0.03602791 -0.11381291 -0.024999991 -0.12379611 0.090156235 0.0797688 -0.07443864 0.09878121
-0.017371904 -0.14339744 0.01818264 -0.0028560192 0.1608902 -0.09150711 0.15761101 -0.03402325
0.048068937 0.15762658 -0.08580397 -0.09646501 -0.028810503 -0.08901827 -0.040804747 -0.11646979
0.07179846 0.12806928 0.101627514 -0.11542707 0.10072208 -0.10575554 0.13735838 0.16250391
-0.15111288 0.02197738 0.043668464 0.029641623 -0.105602704 -0.062760316 -0.023636147 0.03991158
00000000: 8712 8c3d 986e b2bb dc50 91bc 1b25 8f3d
00000010: 0482 2a3d db58 21bd afa1 703c 1827 a2bd
00000020: 8615 a63d bf9f 7c3d e70b 6c3d 5a38 fa3c
00000030: e905 89bd 1140 cebd 0e63 70bd afea 37bc
00000040: c330 4cbd 9802 523d da54 643d 5545 893d
00000050: d6b3 7a3d 9175 33bd c094 1e3e fc38 2c3d
00000060: 0092 133d be16 e9bd c8cc ccbc d188 fdbd
00000070: d5a3 b83d d35d a33d 4973 98bd ce4d ca3d
00000080: 864f 8ebc c7d6 12be c3f3 943c 0d2c 3bbb
00000090: 67c0 243e 1468 bbbd c864 213e f75b 0bbd
000000a0: efe3 443d dd68 213e feb9 afbd 728f c5bd
000000b0: 0104 ecbc 364f b6bd e122 27bd b787 eebd
000000c0: 120b 933d 9824 033e 1622 d03d 0765 ecbd
000000d0: 6147 ce3d 5c96 d8bd ada7 0c3e 6d67 263e
000000e0: 56bd 1abe e809 b43c b4dd 323d fdd2 f23c
000000f0: 3b46 d8bd 7b88 80bd 98a0 c1bc 537a 233d

actor_lin.weight f4 [4, 64]
-0.028134217 0.14252008 0.019470682 0.15355207 -0.075408824 -0.17088665 0.09118107 0.025236651
-0.013269486 0.03954159 -0.20850259 -0.054779537 -0.03855727 0.17647333 0.15317605 -0.02820055
-0.14862493 0.15316747 0.20708498 -0.071307905 -0.18461551 0.0076508904 0.097003914 -0.15428703
0.23802577 -0.008606815 -0.16158852 0.13213022 -0.043144863 -0.06460477 -0.0033668925 0.12487093
-0.07599282 0.03797179 -0.006576553 0.026927216 0.05133712 0.015058654 -0.07676868 0.15812072
-0.06259573 -0.040733222 -0.009284057 -0.022392642 -0.09005776 0.20117334 -0.049954794 -0.026662216
0.07368556 0.067909315 -0.0070675323 -0.15880403 0.008332469 -0.012010578 0.016663743 -0.098071955
-0.05100321 -0.10374654 9.6011485e-05 0.14515583 0.13746677 -0.100382164 -0.05709148 0.054751113
0.17895277 0.120445296 -0.18059964 -0.11361425 0.12938364 0.11033281 -0.11976388 -0.18206792
-0.0338027 -0.080233134 -0.06642493 0.05220838 0.053220466 -0.042251617 0.22168514 0.11446261
-0.1483991 -0.045478117 0.14974466 0.03582071 -0.022941316 -0.062778145 -0.10257425 0.12541965
0.043918695 -0.097367 0.14204039 -0.21301492 0.1437262 0.19814901 -0.10027968 0.21962494
0.034682956 -0.15890284 0.037284985 -0.104685925 0.09003616 -0.047733147 -0.076089785 -0.082880765
-0.110586986 0.06663166 0.09262644 0.1723985 -0.026858684 -0.028549872 0.07101066 0.21097468
0.066547036 -0.12599641 -0.10173142 -0.21843642 -0.058917258 -0.1586187 -0.023855017 -0.0043423683
-0.048068482 -0.016619286 0.06956415 -0.092160344 0.015609423 -0.06558682 -0.117177054 -0.11739494
0.17422198 -0.12504645 -0.20300613 -0.21471573 -0.047688976 0.17935528 -0.2030808 -0.070929386
-0.14561927 0.11705572 -0.19054568 -0.14190932 0.08015786 -0.15108205 -0.030148173 -0.13135329
0.12815887 -0.029777495 0.06818459 0.16593602 0.09074436 0.048876133 -0.05334419 -0.11183621
-0.16748916 0.23059154 -0.1275783 -0.35380554 0.044054776 -0.104990356 -0.13929959 0.09816578
0.08419247 -0.11241115 -0.116370685 0.10663671 -0.13863795 -0.13408042 0.01739638 0.069371976
-0.17070146 -0.03644316 0.049940314 0.12673639 0.16006838 0.2183821 0.16732864 0.07649425
-0.066773444 -0.31793693 -0.051022016 0.10192876 0.069316976 -0.03161761 -0.15942563 0.18435913
-0.26653144 0.13421346 0.0041280994 0.15452592 0.21060322 0.18926176 0.05473014 -0.070280954
0.03421192 0.022667354 -0.14727615 -0.10399852 0.08394253 -0.039207134 -0.10683207 -0.15923615
0.15299736 -0.11101901 0.114238515 0.16725153 -0.14728604 0.0833428 0.11656109 -0.20233953
0.22506519 0.069414996 0.13803624 -0.14819409 0.1567583 -0.27429992 -0.02146151 0.15736245
0.1266154 0.3560805 -0.13552064 0.26416492 0.07062324 -0.04372112 -0.086944625 0.082455516
-0.078460164 0.14734472 -0.073594056 0.11292508 -0.1795103 -0.051428016 -0.11931851 -0.20580505
0.024323089 0.067468405 0.05808616 0.013335503 0.21127015 0.06595185 -0.18402468 -0.18879679
0.06931976 -0.062651716 -0.19141053 -0.13586637 -0.042735245 -0.14227556 -0.13390347 -0.07255864
-0.05414771 0.15247822 -0.11420997 -0.14005637 0.07640855 -0.080712214 0.10235792 0.18245567
00000000: bb79 e6bc c9f0 113e fb80 9f3c c13c 1d3e
00000010: f16f 9abd e9fc 2ebe 24bd ba3d 18bd ce3c
00000020: 4268 59bc 5df6 213d b481 55be 8260 60bd
00000030: 3aee 1dbd 6db5 343e 2fda 1c3e d704 e7bc
00000040: 2231 18be efd7 1c3e 160e 543e e109 92bd
00000050: d90b 3dbe 52b4 fa3b fda9 c63d 6bfd 1dbe
00000060: 07bd 733e 9903 0dbc 7677 25be 254d 073e
00000070: abb8 30bd 814f 84bd 15a7 5cbb 55bc ff3d
00000080: 20a2 9bbd 4f88 1b3d 2080 d7bb 7796 dc3c
00000090: df46 523d 93b8 763c e638 9dbd 66ea 213e
000000a0: 3132 80bd e1d7 26bd 281c 18bc c670 b7bc
000000b0: 3470 b8bd 6200 4e3e 669d 4cbd b86a dabc
000000c0: 74e8 963d 0a14 8b3d c296 e7bb 869d 22be
000000d0: e884 083c 04c8 44bc 6782 883c f3d9 c8bd
000000e0: bee8 50bd 1179 d4bd c659 c938 bba3 143e
000000f0: 17c4 0c3e 2a95 cdbd c1d8 69bd b442 603d
00000100: 653f 373e 06ac f63d 1def 38be 97ae e8bd
00000110: 257d 043e 2bf6 e13d c446 f5bd 0370 3abe
00000120: b374 0abd 4551 a4bd cb09 88bd 74d8 553d
00000130: b4fd 593d 0810 2dbd 6e01 633e 5f6b ea3d
00000140: eff5 17be 4347 3abd aa56 193e bdb8 123d
00000150: 6def bbbc d491 80bd 7312 d2bd 026e 003e
00000160: 17e4 333d 5a68 c7bd 0973 113e 9520 5abe
00000170: f62c 133e 93e7 4a3e 6f5f cdbd 5ce5 603e
00000180: b70f 0e3d 6db7 22be 24b8 183d 9365 d6bd
00000190: e164 b83d d583 43bd f6d4 9bbd 64bd a9bd
000001a0: 6e7b e2bd 2e76 883d eeb2 bd3d 3b89 303e
000001b0: be06 dcbc 6ce1 e9bc 096e 913d bf09 583e
000001c0: d049 883d 3405 01be 9058 d0bd ccad 5fbe
000001d0: 3953 71bd f16c 22be 996b c3bc 6d4a 8ebb
000001e0: 75e3 44bd 2b25 88bc a677 8e3d 90be bcbd
000001f0: aabe 7f3c 6252 86bd 86fa efbd c26c f0bd
00000200: 3f67 323e 2d0c 00be d7e0 4fbe 71de 5bbe
00000210: 8455 43bd e9a8 373e 6af4 4fbe 6d43 91bd
00000220: 381d 15be e9ba ef3d 681e 43be ad50 11be
00000230: ce29 a43d 41b5 1abe 4df9 f6bc 7a81 06be
00000240: 143c 033e efef f3bc 5da4 8b3d 22eb 293e
00000250: 2ed8 b93d 5732 483d 707f 5abd 620a e5bd
00000260: 4782 2bbe 3020 6c3e e3a3 02be 0026 b5be
00000270: c872 343d 2f05 d7bd 8da4 0ebe 240b c93d
00000280: 1a6d ac3d d137 e6bd c153 eebd 5964 da3d
00000290: 1bf7 0dbe 614c 09be da82 8e3c e512 8e3d
000002a0: 5dcc 2ebe 6c45 15bd 378e 4c3d 2fc7 013e
000002b0: f7e8 233e 8f9f 5f3e 3358 2b3e 04a9 9c3d
000002c0: 84c0 88bd a1c8 a2be 76fc 50bd 07c0 d03d
000002d0: 0ff6 8d3d 7881 01bd 7940 23be a4c8 3c3e
000002e0: cf76 88be 416f 093e 0245 873b 0b3c 1e3e
000002f0: 5fa8 573e d6cd 413e b62c 603d 76ef 8fbd
00000300: cc21 0c3d e3b0 b93c 8fcf 16be 2dfd d4bd
00000310: 10ea ab3d a997 20bd c6ca dabd cd0e 23be
00000320: 57ab 1c3e ef5d e3bd e2f5 e93d fc43 2b3e
00000330: 27d2 16be a1af aa3d 95b7 ee3d 1832 4fbe
00000340: 7d77 663e 7329 8e3d 5f59 0d3e 31c0 17be
00000350: 3f85 203e 0a71 8cbe 0cd0 afbc 9f23 213e
00000360: 78a7 013e 2f50 b63e ecc5 0abe a040 873e
00000370: eba2 903d eb14 33bd 0610 b2bd 70de a83d
00000380: b9af a0bd 89e1 163e 7bb8 96bd 4445 e73d
00000390: 8cd1 37be 2fa6 52bd 435d f4bd 8fbe 52be
000003a0: 3741 c73c e02c 8a3d c1eb 6d3d 277d 5a3c
000003b0: 3457 583e c311 873d f770 3cbe f253 41be
000003c0: 85f7 8d3d 8b4f 80bd 1f01 44be 8e20 0bbe
000003d0: 270b 2fbd afb0 11be fe1d 09be a099 94bd
000003e0: fdc9 5dbd 4023 1c3e ebe6 e9bd f06a 0fbe
000003f0: 167c 9c3d 724c a5bd 07a1 d13d a9d5 3a3e

actor_lin.bias f4 [4]
0.073733024 -0.09954675 -0.03454313 0.031659175
00000000: 5701 973d 2bdf cbbd 197d 0dbd 0dad 013d

critic_lin.weight f4 [1, 64]
0.01865665 0.028612074 -0.01944784 0.050937645 0.053616162 -0.15155396 -0.006296389 -0.2686501
0.1880832 0.06564789 0.019014398 0.35295627 0.34534177 -0.0727764 0.0052146246 0.07201836
-0.0031594275 0.0406429 0.11520958 0.047094584 0.05217997 0.09036988 0.10774782 0.040207602
-0.03987675 -0.12694487 -0.014919669 -0.30833745 0.27669942 0.07553783 -0.013693271 0.042736635
0.2017762 -0.092842735 0.10336179 0.09307179 0.025369488 -0.15647367 0.17005834 -0.10410234
0.058025703 0.14516169 -0.36116517 -0.009342725 -0.13070539 0.085642226 0.013612656 -0.504204
0.07826283 0.057349797 0.07061915 -0.09776689 0.10473736 -0.03249718 0.10332419 0.14832263
-0.08769765 0.07633158 0.2123821 0.038845174 -0.055376906 0.047056496 0.1408534 0.10409916
00000000: d5d5 983c de63 ea3c 1451 9fbc fea3 503d
00000010: 9f9c 5b3d f630 1bbe f051 cebb 828c 89be
00000020: e298 403e 6772 863d 15c4 9b3c afb6 b43e
00000030: a3d0 b03e cb0b 95bd 71df aa3b 5d7e 933d
00000040: 660e 4fbb 2b79 263d 00f3 eb3d 40e6 403d
00000050: aaba 553d d813 b93d e4aa dc3d bab0 243d
00000060: ce55 23bd d6fd 01be a171 74bc 68de 9dbe
00000070: 8cab 8d3e 94b3 9a3d be59 60bc 9c0c 2f3d
00000080: 6c9e 4e3e 5524 bebd 59af d33d 6c9c be3d
00000090: acd3 cf3c a23a 20be c623 2e3e 9c33 d5bd
000000a0: 5cac 6d3d 44a5 143e a4ea b8be 3b12 19bc
000000b0: a2d7 05be 3165 af3d 9e07 5f3c 8313 01bf
000000c0: 4348 a03d 9fe7 6a3d c6a0 903d 023a c8bd
000000d0: 8a80 d63d c31b 05bd a29b d33d e3e1 173e
000000e0: d39a b3bd bb53 9c3d b17a 593e 1e1c 1f3d
000000f0: e5d2 62bd 50be 403d e03b 103e f131 d53d
