project-2-continuous-control/checkpoint.pth (torch_old, 28189 bytes, 8 tensors)

std f4 [1, 4]
-0.63444126 -0.58769405 -0.66865885 -0.5528697
00000000: be6a 22bf 1e73 16bf 3a2d 2bbf de88 0dbf

base.0.0.weight f4 [64, 33]
0.20242463 -0.031447954 0.013018622 0.25667858 -0.032965206 -0.017248057 0.011683782 0.11070295
-0.13081062 0.16457804 -0.009189831 0.012400041 0.048768964 0.0045496617 -0.123998754 0.092662886
0.049270824 0.05091281 -0.025691703 -0.11985085 -0.10519475 -0.14520788 0.01654627 -0.026499346
0.028967336 -0.009572094 -0.04266952 -0.21164171 0.13328151 -0.12572275 0.27752528 0.11082217
0.6911337 -0.24800345 -0.075977445 -0.1513141 0.090084694 -0.20419677 -0.14779262 -0.05049586
-0.09045387 -0.0051069343 0.0775938 0.07626255 0.030137239 0.0056407773 0.27082744 -0.12651847
-0.10970004 0.053261034 0.031445295 0.013808206 -0.04048492 0.039111517 -0.08220655 0.10056375
0.1748488 0.024781415 -0.059563078 0.16897455 0.09334213 -0.18625244 0.08914742 0.17937446
-0.14457309 0.1383614 -0.107333906 -0.20695165 -0.2231756 0.07263781 0.037056036 -0.023438582
0.01756773 0.009129483 0.049460948 0.12494803 0.03793616 -0.060010135 -0.094732255 0.050274596
-0.18172295 0.040989213 0.08378918 -0.044293806 -0.099580266 -0.030703608 0.06829088 -0.018142149
0.051765587 -0.0750852 0.011745114 0.106656335 0.16885102 -0.16036583 0.111926384 -0.033704206
0.23507468 -0.07315839 -0.31457785 0.049014356 0.06736213 -0.112887785 -0.050475523 0.0694534
0.0056648254 0.100645766 0.0239666 0.100727424 -0.11092422 -0.0065391776 -0.032003324 -0.07312298
-0.17462617 -0.16057128 0.07103277 0.043921415 -0.01339878 -0.00023825296 0.035927847 -0.0110914605
-0.08879817 -0.018376907 -0.020758564 -0.10226592 0.052413467 0.14803854 -0.097632684 -0.3015402
0.14273593 -0.18656783 -0.11326955 -0.6493388 0.08212398 -0.18301958 -0.1135356 0.21374041
0.16165929 0.013765568 -0.13125288 0.1584419 0.049689014 -0.16532497 0.008390682 0.045540374
0.0015184948 -0.01444852 -0.082055666 -0.07817391 0.15768176 0.033549175 -0.09753555 -0.0027391552
-0.01982893 0.03183894 0.0019548715 0.11070926 0.003282687 0.0370642 -0.19150735 -0.16329359
-0.00025692026 -0.08460698 0.16013083 -0.1454133 -0.24339366 0.037719343 0.13004498 0.15422076
-0.029118229 -0.103737526 0.10999993 -0.0051408694 0.00021120836 -0.2586923 -0.12303586 0.027262807
0.03302165 0.07313869 0.15288903 -0.3150045 -0.041776586 0.08810563 0.016070278 -0.013315699
0.033597007 0.0059095677 0.10168212 -0.073481455 -0.08383326 -0.16355208 -0.01840885 -0.2564211
0.16781712 0.112583086 0.022122025 0.0961091 0.13774508 -0.40296665 0.08249813 -0.18804291
-0.13723621 0.029413506 0.13343409 0.08798967 -0.10234755 -0.005501137 0.12905638 -0.011479417
0.056560293 0.007138382 -0.088849135 -0.2668257 -0.2213235 0.2026878 -0.045841593 0.08724602
0.113588795 0.06914098 0.09253601 0.16136287 -0.009131198 -0.11368428 -0.045213148 -0.0025782126
0.20980968 -0.21000606 -0.08705709 0.12718391 -0.00931374 -0.10344697 0.09767937 -0.035648465
0.12282909 -0.20789191 -0.0829117 -0.049719907 0.123511374 -0.0041829324 -0.13938078 0.046386275
-0.08068515 -0.022114236 -0.04659736 -0.03632105 0.058131132 -0.14196984 0.15716283 0.078544036
0.10737979 0.121038884 0.06654682 0.04318223 0.084182724 -0.026900442 0.059603255 -0.052684087
00000000: 6748 4f3e 92cf 00bd 0f4c 553c 606b 833e
00000010: 8606 07bd cc4b 8dbc 556d 3f3c 3ab8 e23d
00000020: 38f3 05be 2587 283e f290 16bc 8b29 4b3c
00000030: f7c1 473d 5415 953b 0ff3 fdbd 0ac6 bd3d
00000040: 34d0 493d f389 503d 6877 d2bc 5d74 f5bd
00000050: 5870 d7bd 60b1 14be 0b8c 873c 2815 d9bc
00000060: e84c ed3c 46d4 1cbc 3cc6 2ebd 9bb8 58be
00000070: f37a 083e 77bd 00be cb17 8e3e bcf6 e23d
00000080: 23ee 303f 9ef4 7dbe 109a 9bbd 15f2 1abe
00000090: 537e b83d f518 51be f356 17be bfd4 4ebd
000000a0: e13f b9bd 1258 a7bb 80e9 9e3d 8a2f 9c3d
000000b0: 5fe2 f63c 45d6 b83b e5a9 8a3e 0f8e 01be
000000c0: 6aaa e0bd 3e28 5a3d c8cc 003d d03b 623c
000000d0: 84d3 25bd 6633 203d e85b a8bd 5ef4 cd3d
000000e0: 900b 333e 6502 cb3c 6af8 73bd aa07 2d3e
000000f0: 292a bf3d f6b8 3ebe ec92 b63d f0ad 373e
00000100: f80a 14be 9cae 0d3e e1d1 dbbd 22eb 53be
00000110: 2588 64be 22c3 943d 12c8 173d 4502 c0bc
00000120: 33ea 8f3c d493 153c 9097 4a3d c1e4 ff3d
00000130: f262 1b3d 30cd 75bd fc02 c2bd bcec 4d3d
00000140: 9515 3abe 4ee4 273d a999 ab3d 6c6d 35bd
00000150: bdf0 cbbd 2286 fbbc 17dc 8b3d d89e 94bc
00000160: 2708 543d 45c6 99bd 946e 403c a36e da3d
00000170: 48e7 2c3e f136 24be a939 e53d 6c0d 0abd
00000180: 6bb7 703e 11d4 95bd 5910 a1be 47c3 483d
00000190: 28f5 893d b631 e7bd 6cbf 4ebd 963d 8e3d
000001a0: 00a0 b93b 5e1f ce3d 9a55 c43c 2e4a ce3d
000001b0: 3d2c e3bd 9946 d6bb eb15 03bd 80c1 95bd
000001c0: 34d1 32be cc6c 24be a179 913d f1e6 333d
000001d0: 8e86 5bbc 8bd3 79b9 1429 133d f5b8 35bc
000001e0: d1db b5bd 2b8b 96bc dd0d aabc cb70 d1bd
000001f0: 81af 563d 6a97 173e a5f3 c7bd 7a63 9abe
00000200: 5e29 123e a30b 3fbe def9 e7bd 113b 26bf
00000210: 9e30 a83d 7c69 3bbe 5a85 e8bd c4de 5a3e
00000220: 038a 253e fa88 613c 2867 06be 983e 223e
00000230: b586 4b3d f34a 29be 1279 093c 8b88 3a3d
00000240: 3b08 c73a 7cb9 6cbc cd0c a8bd a519 a0bd
00000250: 5477 213e dc6a 093d b8c0 c7bd 6683 33bb
00000260: 4870 a2bc 8c69 023d 4d1d 003b 89bb e23d
00000270: 5922 573b a1d0 173d 811a 44be 6f36 27be
00000280: 41b3 86b9 6d46 adbd 56f9 233e 39e7 14be
00000290: 303c 79be 997f 1a3d 832a 053e 0cec 1d3e
000002a0: 5a89 eebc 5774 d4bd a547 e13d bd74 a8bb
000002b0: d077 5d39 5173 84be 3afa fbbd 4056 df3c
000002c0: b641 073d bdc9 953d f18e 1c3e 4548 a1be
000002d0: ed1d 2bbd b970 b43d d1a5 833c 172a 5abc
000002e0: 049d 093d 0ca5 c13b b73e d03d 727d 96bd
000002f0: c6b0 abbd 327a 27be 28ce 96bc a049 83be
00000300: 40d8 2b3e f691 e63d 4039 b53c d9d4 c43d
00000310: 0c0d 0d3e a551 cebe c8f4 a83d 528e 40be
00000320: a687 0cbe 98f4 f03c f2a2 083e ee33 b43d
00000330: 989b d1bd e242 b4bb 5b27 043e 2a14 3cbc
00000340: c4ab 673d 17e9 e93b 89f6 b5bd 619d 88be
00000350: a1a2 62be 648d 4f3e 65c4 3bbd 0bae b23d
00000360: 3ea1 e83d c999 8d3d 8583 bd3d 4f3c 253e
00000370: 059b 15bc 4ed3 e8bd 6c31 39bd 3bf7 28bb
00000380: 59d8 563e d40b 57be fd4a b2bd 803c 023e
00000390: a898 18bc 01dc d3bd 1f0c c83d 2004 12bd
000003a0: d18d fb3d 9ee1 54be 9ccd a9bd 1aa7 4bbd
000003b0: 88f3 fc3d fb10 89bb d6b9 0ebe 89ff 3d3d
000003c0: 423e a5bd ea28 b5bc e0dc 3ebd 62c5 14bd
000003d0: e91a 6e3d 8b60 11be 4bef 203e b2db a03d
000003e0: efe9 db3d 3ce3 f73d b349 883d dadf 303d
000003f0: fe67 ac3d 515e dcbc 8b22 743d 45cb 57bd

base.0.0.bias f4 [64]
0.19883111 0.04700386 0.15384358 0.025113365 0.18334606 -0.18460304 -0.040756624 -0.09445185
0.012769551 0.1169651 0.07071145 0.019941887 0.018636668 0.052031983 -0.04140759 0.07492293
0.24620076 -0.12781768 0.17865302 -0.16576917 0.15552828 0.1328035 -0.015028843 -0.14950642
0.23410349 -0.11626165 -0.14288035 0.0061512366 -0.024240194 0.081394054 0.095209785 0.03839142
-0.06707921 0.1405135 -0.036460962 0.27447057 0.036173746 0.069025844 0.25076658 0.037078828
-0.0699876 0.057478722 0.024351638 0.19951518 0.16005997 -0.13737065 -0.0058426233 0.12066886
0.15844974 -0.13326968 -0.09529715 0.011141974 0.07011714 -0.02256699 0.059441622 0.039320715
-0.05259022 0.04975942 0.14083491 0.17264704 0.15935272 -0.008852617 0.1826761 -0.081002384
00000000: 629a 4b3e 1f87 403d 2c89 1d3e 8bba cd3c
00000010: 12bf 3b3e 9408 3dbe 6bf0 26bd f96f c1bd
00000020: 6137 513c 668b ef3d 2ad1 903d 2b5d a33c
00000030: edab 983c 7d1f 553d 019b 29bd 3171 993d
00000040: 0d1c 7c3e a3e2 02be d1f0 363e 65bf 29be
00000050: ce42 1f3e a4fd 073e 893b 76bc 3618 19be
00000060: d3b8 6f3e 971a eebd 3a4f 12be 5090 c93b
00000070: 5f93 c6bc edb1 a63d 59fd c23d 5240 1d3d
00000080: d360 89bd c5e2 0f3e 1758 15bd 6887 8c3e
00000090: ec2a 143d 6c5d 8d3d 7a64 803e f8df 173d
000000a0: a955 8fbd cf6e 6b3d 167d c73c b54d 4c3e
000000b0: c3e6 233e e4aa 0cbe 7a73 bfbb 3c21 f73d
000000c0: a640 223e d977 08be 272b c3bd d38c 363c
000000d0: 9399 8f3d 69de b8bc 0f79 733d c20e 213d
000000e0: d868 57bd 89d0 4b3d 0737 103e 63ca 303e
000000f0: 5c2d 233e 910a 11bc 720f 3b3e 94e4 a5bd

base.1.0.weight f4 [64, 64]
0.049232032 -0.139854 -0.084605955 -0.06376844 -0.032405317 0.024535425 0.087774485 -0.20176095
0.13051373 -0.05078094 -0.111282036 -0.038647596 -0.018074336 -0.06701206 -0.06322023 -0.040139824
-0.013746447 0.12679663 0.053766306 -0.069045454 0.0467789 0.17682222 0.078294985 0.08317314
-0.054340586 -0.061292235 0.14278787 0.044818584 0.11369 0.020120885 -0.100766584 -0.07348499
0.03651548 0.07171763 0.13647343 0.01407052 -0.108141884 0.00075286196 0.15641229 -0.055647586
0.0677892 -0.07045829 -0.044013172 0.07429874 0.1294366 0.03887072 -0.10097107 -0.057465922
-0.18331338 0.05504852 0.008678609 -0.07964826 0.03266679 0.01720752 0.07209586 -0.03318789
-0.06943153 -0.16113506 -0.10297572 -0.06551644 0.016722087 -0.007477828 -0.101907685 0.078453854
-0.0053602788 -0.07391675 0.038324125 0.085980244 -0.052432176 0.0306104 -0.0459052 0.067585155
0.010364297 -0.06863513 0.08006061 0.06165304 -0.04418876 -0.116185896 0.21372376 -0.057781953
0.11937327 0.022972742 -0.02159036 -0.041026603 -0.01351256 0.14444143 -0.07919382 0.20401773
-0.07580227 0.087182015 0.08763979 0.07836498 -0.128664 0.1235767 0.093090884 0.025057092
0.038428772 -0.14238173 -0.058126215 -0.121040456 -0.17534134 0.03042465 -0.0072532804 0.022061542
0.021132503 -0.16047214 -0.026807899 -0.056298263 -0.1087294 0.09240928 -0.117444664 -0.07121076
-0.04563416 -0.03107871 0.18144724 0.038756832 0.039849572 0.03508444 0.24704793 0.052857507
0.02964616 -0.06678175 -0.014255532 -0.037849896 -0.055052243 -0.0990758 0.123144634 -0.13253677
-0.07065079 0.15119635 0.033041213 0.0075461715 -0.023262821 -0.01651444 -0.037857696 0.07413686
-0.14229661 -0.100233495 -0.0849641 0.049659785 0.024686297 0.08131792 -0.085370295 0.05420548
0.093493566 -0.08132209 0.05314501 -0.029848924 0.090522 0.11697219 0.036662318 -0.06267795
-0.087195575 -0.11089367 0.04821598 -0.093875185 0.032451432 -0.029273123 0.04835444 0.119675145
0.14827248 -0.053997677 0.010287609 -0.14005251 -0.1599604 -0.009169562 0.09594224 0.0663211
-0.12339536 0.026844036 -0.0281217 0.040682927 0.038958292 0.03791527 -0.07648649 0.030838095
-0.16216828 0.14596654 0.10410911 -0.09167457 0.23446321 0.07702102 0.14116287 -0.062292866
0.041688446 0.064260036 0.05759045 -0.05543585 0.0952076 0.10402192 0.12491684 0.11544929
0.06977338 -0.000717378 -0.06834407 0.017449904 0.056066386 -0.054547682 0.095630236 0.07675996
-0.18930994 0.06715735 -0.11008444 -0.017386686 0.043839116 -0.041964084 0.06389366 -0.027703721
-0.06540719 0.102079935 0.002907855 0.07059664 -0.05768672 -0.1570017 -0.14818242 -0.029856032
0.153103 0.13512443 -0.19175531 -0.019570213 -0.0933278 -0.0845841 0.024609981 0.048789065
-0.028821655 0.06902037 0.13565998 0.055025797 -0.08001315 0.004925857 -0.03395306 -0.009287265
0.04132988 -0.052467793 -0.046389583 -0.07488357 0.103858344 0.0995512 -0.04388149 -0.025109185
0.17818676 -0.0812124 0.054780908 -0.071269594 -0.08359484 -0.08817056 0.00050990103 0.1870493
0.07218607 -0.12060874 0.053125177 -0.024186747 -0.076147035 -0.086706266 0.06986418 -0.0968491
00000000: 87a7 493d e335 0fbe e345 adbd 0799 82bd
00000010: 70bb 04bd 84fe c83c 1cc3 b33d 6c9a 4ebe
00000020: 64a5 053e adff 4fbd d6e7 e3bd f14c 1ebd
00000030: a110 94bc 9e3d 89bd 9c79 81bd a869 24bd
00000040: c738 61bc fad6 013e 0f3a 5c3d b467 8dbd
00000050: 3b9b 3f3d e210 353e 1f59 a03d ae56 aa3d
00000060: 3c94 5ebd 910d 7bbd fc36 123e b193 373d
00000070: 4dd6 e83d 8ed4 a43c b65e cebd 4c7f 96bd
00000080: 4291 153d b1e0 923d b1bf 0b3e 0a88 663c
00000090: 7e79 ddbd b65b 453a 8b2a 203e b9ee 63bd
000000a0: 10d5 8a3d 704c 90bd 2847 34bd f029 983d
000000b0: 078b 043e e736 1f3d ecc9 cebd 6361 6bbd
000000c0: 81b6 3bbe 8f7a 613d b930 0e3c a01e a3bd
000000d0: 9dcd 053d c9f6 8c3c ffa6 933d 06f0 07bd
000000e0: 1e32 8ebd 9700 25be efe4 d2bd 7c2d 86bd
000000f0: c2fc 883c 9108 f5bb fab4 d0bd 6aac a03d
00000100: 47a5 afbb aa61 97bd c2f9 1c3d 6916 b03d
00000110: 1fc3 56bd a9c2 fa3c 1707 3cbd 166a 8a3d
00000120: 03cf 293c 9390 8cbd d1f6 a33d e687 7c3d
00000130: 46ff 34bd dff2 edbd 67da 5a3e c5ac 6cbd
00000140: f979 f43d 5531 bc3c 44de b0bc 830b 28bd
00000150: c963 5dbc 74e8 133e 5f30 a2bd 06ea 503e
00000160: 383e 9bbd 7c8c b23d 7d7c b33d d27d a03d
00000170: 7fc0 03be c815 fd3d 6fa6 be3d 8844 cd3c
00000180: 7d67 1d3d 84cc 11be c115 6ebd 0fe4 f7bd
00000190: ae8c 33be 1e3d f93c edac edbb 68ba b43c
000001a0: 121e ad3c cf52 24be 3d9c dbbc 0299 66bd
000001b0: 85ad debd 1441 bd3d d486 f0bd f2d6 91bd
000001c0: e3ea 3abd c798 febc 4ecd 393e 7cbf 1e3d
000001d0: 4e39 233d b4b4 0f3d 22fa 7c3e 1d81 583d
000001e0: 81dc f23c dfc4 88bd 0990 69bc 7e08 1bbd
000001f0: 767e 61bd 41e8 cabd 4133 fc3d b8b7 07be
00000200: 5db1 90bd 37d3 1a3e 3956 073d e045 f73b
00000210: ac91 bebc 4a49 87bc ac10 1bbd 11d5 973d
00000220: 34b6 11be 3847 cdbd a801 aebd 0f68 4b3d
00000230: eb3a ca3c 028a a63d 9fd6 aebd 9106 5e3d
00000240: 8e79 bf3d 328c a6bd 95ae 593d bb85 f4bc
00000250: 9963 b93d 1e8f ef3d 3a2b 163d 4c5d 80bd
00000260: 9893 b2bd 381c e3bd 1f7e 453d a241 c0bd
00000270: cbeb 043d 30ce efbc 4e0f 463d 3e18 f53d
00000280: bed4 173e ab2c 5dbd 5c8d 283c ed69 0fbe
00000290: a9cc 23be ee3b 16bc 5d7d c43d 5bd3 873d
000002a0: b5b6 fcbd 06e8 db3c 7b5f e6bc 24a3 263d
000002b0: bb92 1f3d 0b4d 1b3d f3a4 9cbd 2ca0 fc3c
000002c0: 710f 26be 4178 153e 2837 d53d e1bf bbbd
000002d0: 2017 703e 32bd 9d3d 008d 103e ce26 7fbd
000002e0: 81c1 2a3d c49a 833d f7e3 6b3d b410 63bd
000002f0: 34fc c23d 7209 d53d 66d4 ff3d ad70 ec3d
00000300: 59e5 8e3d 6c0e 3cba faf7 8bbd 1af3 8e3c
00000310: dea5 653d 646d 5fbd c9d9 c33d 5334 9d3d
00000320: 77da 41be cb89 893d f373 e1bd 866e 8ebc
00000330: a590 333d 88e2 2bbd aeda 823d eaf2 e2bc
00000340: 34f4 85bd 490f d13d b691 3e3b f994 903d
00000350: e948 6cbd 0ec5 20be 22bd 17be a394 f4bc
00000360: 08c7 1c3e 0f5e 0a3e 815b 44be b651 a0bc
00000370: a522 bfbd 6e3a adbd df9a c93c 0bd7 473d
00000380: 641b ecbc 8d5a 8d3d 73ea 0a3e bb62 613d
00000390: efdd a3bd 1569 a13b 5d12 0bbd 9d29 18bc
000003a0: 8549 293d 78e8 56bd 0103 3ebd 8f5c 99bd
000003b0: afb3 d43d 80e1 cb3d 14bd 33bd c7b1 cdbc
000003c0: 9776 363e b052 a6bd f261 603d cbf5 91bd
000003d0: c533 abbd c492 b4bd e1aa 053a da89 3f3e
000003e0: 4ad6 933d b701 f7bd c999 593d 4923 c6bc
000003f0: faf2 9bbd 0e93 b1bd f414 8f3d d258 c6bd

base.1.0.bias f4 [64]
0.11366649 0.13169977 -0.026205434 0.09451972 -0.057010494 -0.009525024 0.21356553 -0.12914649
0.03254979 -0.11082336 -0.001715879 0.16652745 -0.020029875 0.13956599 -0.08925375 -0.20766674
0.031013109 0.026727203 -0.0029084506 -0.10522139 0.24089187 0.1434636 0.09333953 -0.05910212
-0.10932359 -0.09254379 -0.023102276 0.19363707 -0.20603746 0.08385394 -0.09010943 0.06924835
0.14122936 0.12550358 0.03879454 -0.04344902 0.16680624 0.19962698 0.044446103 -0.06613773
-0.028566644 0.20547579 0.09421842 -0.15923506 -0.0038665556 0.055347417 0.10793742 -0.17939104
0.15286407 0.07151687 0.02078139 0.08333249 0.12471156 0.0146012185 -0.12741894 -0.12354206
0.097929016 0.02844299 0.1795817 -0.12888521 0.094467945 -0.010374338 -0.011555649 0.035242684
00000000: fac9 e83d 4edc 063e c7ac d6bc 8e93 c13d
00000010: d683 69bd d90e 1cbc ecb0 5a3e fa3e 04be
00000020: ee52 053d 5cf7 e2bd 58e7 e0ba 2c86 2a3e
00000030: b115 a4bc 63ea 0e3e acca b6bd 97a6 54be
00000040: 340f fe3c 02f3 da3c b49b 3ebb 507e d7bd
00000050: 5cac 763e 1fe8 123e cc28 bf3d 1115 72bd
00000060: 0ce5 dfbd 9987 bdbd fc40 bdbc cc48 463e
00000070: 7cfb 52be 9dbb ab3d 4b8b b8bd 14d2 8d3d
00000080: 6e9e 103e 0384 003e 06e7 1e3d 99f7 31bd
00000090: 41cf 2a3e 046b 4c3e 1e0d 363d 3873 87bd
000000a0: 9804 eabc 3f68 523e 96f5 c03d 840e 23be
000000b0: 0a66 7dbb f9b3 623d 4b0e dd3d 49b2 37be
000000c0: 6688 1c3e 7077 923d bc3d aa3c 39aa aa3d
000000d0: c668 ff3d f339 6f3c 1c7a 02be 9f03 fdbd
000000e0: 028f c83d 4601 e93c 44e4 373e 7cfa 03be
000000f0: 6978 c13d 21f9 29bc e853 3dbc a25a 103d

actor_lin.weight f4 [4, 64]
-0.09435556 0.09265953 0.11600321 -0.25148112 0.035746224 0.061439782 -0.08338587 0.11735953
0.09649227 0.13919841 0.04445265 0.05203239 -0.2719264 -0.050972782 0.12777425 0.16977492
0.19303904 0.056261733 -0.07053394 0.029282222 -0.048527386 0.19189423 -0.067491926 -0.049961466
-0.18782197 0.13435112 0.17714038 0.06590622 -0.06395002 -0.006949759 0.19484435 -0.12621437
-0.120137826 0.1496106 0.297421 -0.21459989 0.15015183 -0.18496871 -0.11644602 0.014751292
0.100044146 0.18664044 0.09406835 -0.16183543 -0.0657305 -0.087424114 -0.068710215 0.10809427
-0.13711783 0.016209736 0.045778427 -0.11215406 -0.010748023 -0.11296725 -0.18150175 0.15513073
-0.16363946 0.20025867 -0.025468608 0.113302745 -0.015391358 -0.09858051 0.078207575 -0.13458249
0.14635603 0.15752006 0.004059639 0.038284447 0.19930862 -0.21655616 0.13038006 -0.26616135
-0.075634666 0.019940035 0.053046905 0.019741246 0.060598694 0.11614103 0.11974854 0.099486075
-0.21876912 0.13154088 -0.1767645 0.09622984 -0.05126638 0.050049182 0.1039382 0.06668026
0.1629642 -0.04256291 0.124042064 -0.16162461 -0.11672445 -0.1770098 0.04490877 -0.021122754
0.09428418 -0.24868643 -0.07990554 -0.028721835 0.12094659 -0.06638939 0.03300973 -0.037941586
-0.11022223 -0.0437427 -0.091817796 0.10473036 -0.032367036 0.0912013 0.13897923 0.23676662
-0.2083494 0.17338338 -0.19707449 -0.1388329 0.06311706 -0.026280403 -0.124875605 0.15427026
0.07487284 -0.10849985 -0.066295825 -0.0792901 0.118604034 0.08096871 0.23119116 0.072993025
-0.025816375 -0.13329336 -0.03428951 0.19593276 -0.18462232 0.045058426 -0.102288604 0.16599607
0.23044775 -0.10267285 0.1342357 -0.16592789 -0.16894588 -0.21410887 -0.12026057 -0.0570246
0.107155524 -0.09266136 0.027474616 -0.18082806 0.010737379 0.072855756 0.018250704 0.20376363
0.21450368 0.0840944 0.07055256 -0.05264996 0.007455415 0.0504574 0.036847617 -0.11799237
0.17684002 -0.11903552 0.05578952 0.18790476 -0.14144863 -0.11679357 -0.03433339 -0.1782477
1.4032274e-05 0.19226897 -0.0033552754 -0.05411551 0.086771324 0.05219169 0.138699 0.09522091
-0.07249708 -0.027932553 0.17994276 -0.19159414 -0.2042957 0.03798718 0.22007798 -0.11157896
-0.04535508 0.14746368 -0.19357713 0.25661847 0.17568375 0.23896442 0.2777887 0.21860683
0.10996727 0.14551863 0.250601 -0.15966818 0.011341746 -0.02938504 0.0168638 -0.00032256942
-0.16258259 0.14868528 -0.036865763 -0.33042586 0.16883093 -0.1425117 0.12099192 -0.06325754
0.19778068 -0.014111187 -0.0818193 0.22517101 0.14124487 -0.12504107 0.13150285 -0.082609475
0.17058319 -0.06568045 -0.056279693 0.013335943 -0.21136615 -0.0037847068 0.10998148 -0.068923
-0.10098293 0.038731754 -0.24034101 -0.18122075 -0.119005546 -0.049622092 0.029916741 0.23530306
0.03141528 -0.09975641 0.13936704 -0.08763256 -0.20132454 0.22567093 0.01026291 0.21602097
0.02855968 0.13560168 -0.21631792 -0.15260541 0.17066087 0.18716855 0.1278631 0.041277915
-0.21232761 -0.098799415 0.11863323 0.105563045 -0.08639321 0.051617004 -0.10902683 0.16532204
00000000: 7d3d c1bd 48c4 bd3d 1793 ed3d 22c2 80be
00000010: a26a 123d 48a8 7b3d 36c6 aabd 315a f03d
00000020: bd9d c53d 078a 0e3e fb13 363d ea1f 553d
00000030: f039 8bbe d6c8 50bd 41d7 023e 7ad9 2d3e
00000040: 07ac 453e b472 663d 1974 90bd 45e1 ef3c
00000050: a7c4 46bd ec7f 443e 3539 8abd 65a4 4cbd
00000060: 6754 40be 5793 093e 4a64 353e d7f9 863d
00000070: 3af8 82bd ceba e3bb 4785 473e 573e 01be
00000080: d20a f6bd 8533 193e 9147 983e 13c0 5bbe
00000090: 67c1 193e 7068 3dbe 407b eebd 67af 713c
000000a0: f2e3 cc3d ac1e 3f3e e8a6 c03d 30b8 25be
000000b0: b69d 86bd 6a0b b3bd f1b7 8cbd 8760 dd3d
000000c0: 9e68 0cbe 48ca 843c 2982 3b3d 07b1 e5bd
000000d0: 7a18 30bc 605b e7bd 98db 39be 97da 1e3e
000000e0: 1a91 27be 9c10 4d3e 8ba3 d0bc 450b e83d
000000f0: 092c 7cbc 94e4 c9bd 4b2b a03d fecf 09be
00000100: 5bde 153e f04c 213e b806 853b 27d0 1c3d
00000110: 8f17 4c3e e6c0 5dbe 5a82 053e 4d46 88be
00000120: 59e6 9abd 4959 a33c b647 593d 65b8 a13c
00000130: 5636 783d 59db ed3d b93e f53d 5bbf cb3d
00000140: 0305 60be a7b2 063e c101 35be 2614 c53d
00000150: b2fc 51bd 5f00 4d3d 8ddd d43d a98f 883d
00000160: 16e0 263e 7256 2ebd c409 fe3d ec80 25be
00000170: 3a0d efbd 0f42 35be 42f2 373d a009 adbc
00000180: 1018 c13d a8a7 7ebe 84a5 a3bd 0e4a ebbc
00000190: d9b2 f73d 29f7 87bd 3635 073d a368 1bbd
000001a0: 31bc e1bd 8c2b 33bd f80a bcbd df7c d63d
000001b0: 4c93 04bd bfc7 ba3d 9250 0e3e f372 723e
000001c0: 8c59 55be 6a8b 313e e5cd 49be 362a 0ebe
000001d0: 8443 813d 004a d7bc c8be ffbd 06f9 1d3e
000001e0: ee56 993d 2b35 debd 1bc6 87bd d962 a2bd
000001f0: ace6 f23d ecd2 a53d 60bd 6c3e 5e7d 953d
00000200: dd7c d3bc 0e7e 08be 2873 0cbd 99a2 483e
00000210: a20d 3dbe 2f8f 383d b07c d1bd e0fa 293e
00000220: 7ffa 6b3e 2546 d2bd 1575 093e 00e9 29be
00000230: 2600 2dbe 5b3f 5bbe 2c4b f6bd a192 69bd
00000240: 5b74 db3d 3dc5 bdbd 7212 e13c fe2a 39be
00000250: d5eb 2f3c 6635 953d 8082 953c 6aa7 503e
00000260: daa6 5b3e af39 ac3d dc7d 903d 7ca7 57bd
00000270: 8e4c f43b 6bac 4e3d 87ed 163d fca5 f1bd
00000280: 8d15 353e e5c8 f3bd 8d83 643d 1b6a 403e
00000290: e9d7 10be 7831 efbd 2ba1 0cbd 9186 36be
000002a0: 286c 6b37 28e2 443e 2ee4 5bbb 3aa8 5dbd
000002b0: 2ab5 b13d f4c6 553d 1c07 0e3e 2e03 c33d
000002c0: 5979 94bd cfd2 e4bc ea42 383e 4131 44be
000002d0: e432 51be 7298 1b3d 1f5c 613e 8383 e4bd
000002e0: 40c6 39bd b800 173e 1539 46be 7f63 833e
000002f0: 71e6 333e 17b3 743e 523a 8e3e 78da 5f3e
00000300: 8536 e13d d602 153e c64e 803e 0e80 23be
00000310: bbd2 393c e5b8 f0bc f425 8a3c 891e a9b9
00000320: 0d7c 26be f440 183e 8e00 17bd 942d a9be
00000330: 04e2 2c3e 96ee 11be 9dca f73d 2b8d 81bd
00000340: 0587 4a3e 9c32 67bc e190 a7bd 3b93 663e
00000350: 7fa2 103e c40a 00be afa8 063e 282f a9bd
00000360: 5cad 2e3e 7983 86bd 8985 66bd 007f 5a3c
00000370: 5e70 58be d808 78bb f83d e13d 8027 8dbd
00000380: 23d0 cebd 30a5 1e3d f41b 76be ef91 39be
00000390: 2eb9 f3bd 8940 4bbd f413 f53c 49f3 703e
000003a0: 4fad 003d 174d ccbd 3cb6 0e3e b378 b3bd
000003b0: 0528 4ebe 4816 673e c425 283c 9a34 5d3e
000003c0: fdf5 e93c 2bdb 0a3e 7282 5dbe 9844 1cbe
000003d0: b9c1 2e3e 1da9 3f3e 8bee 023e 0813 293d
000003e0: 696c 59be 5957 cabd fbf5 f23d 7031 d83d
000003f0: ecee b0bd 5a6c 533d 7549 dfbd 2e4a 293e

actor_lin.bias f4 [4]
0.024681466 0.04813763 -0.07058993 -0.13747981
00000000: c930 ca3c f72b 453d 7491 90bd 82c7 0cbe

critic_lin.weight f4 [1, 64]
0.12810881 0.14325538 -0.011993046 -0.097311996 -0.015321814 0.04478379 0.17457364 -0.1523567
0.17277111 -0.013793495 0.16143622 0.01972054 -0.09960193 0.057604667 -0.018144542 -0.12557606
-0.22747344 -0.43544084 0.1495517 -0.04954989 0.11178901 0.07697081 0.1623877 -0.11727164
-0.29441515 -0.7110527 0.069125466 0.104118004 -0.13834536 0.009705434 -0.061623897 0.12644503
0.063931555 0.023439437 -0.046181478 0.036150247 0.08639891 0.06730885 0.6403193 -0.14547956
0.15113421 0.1107134 0.08746694 -0.31125775 0.017708287 0.19228078 0.15426005 -0.31916037
0.11079896 0.021076187 0.025505757 0.0402104 0.054952312 0.13901488 -0.08633029 -0.16735606
0.094488114 0.07512101 0.06812279 -0.10756291 0.116689 0.17961262 -0.04632134 0.008231822
00000000: f52e 033e 8ab1 123e 7b7e 44bc 834b c7bd
00000010: 5908 7bbc 356f 373d 6fc3 323e 6503 1cbe
00000020: e9ea 303e 1cfe 61bc 894f 253e f88c a13c
00000030: 19fc cbbd dff2 6b3d dda3 94bc 0397 00be
00000040: ccee 68be 1af2 debe 1524 193e d3f4 4abd
00000050: a3f1 e43d dfa2 9d3d f648 263e 1d2c f0bd
00000060: 95bd 96be 8d07 36bf a791 8d3d d23b d53d
00000070: 68aa 0dbe 8a03 1f3c 5769 7cbd ce7a 013e
00000080: 8cee 823d 1004 c03c ca28 3dbd 4812 143d
00000090: e9f1 b03d 39d9 893d f7eb 233f 98f8 14be
000000a0: edc2 1a3e b5bd e23d de21 b33d 2d5d 9fbe
000000b0: f810 913c 41e5 443e 59f6 1d3e fd68 a3be
000000c0: 91ea e23d f8a7 ac3c 73f1 d03c a9b3 243d
000000d0: ad15 613d eb59 0e3e efcd b0bd 635f 2bbe
000000e0: fc82 c13d 0bd9 993d f683 8b3d f149 dcbd
000000f0: a4fa ee3d 5fec 373e 72bb 3dbd c4de 063c
