project-1-navigation/checkpoint.pth (torch_old, 570763 bytes, 8 tensors)

model.0.weight f4 [256, 37]
-0.0708303 0.0011909317 0.1132492 0.012555046 0.027286293 0.1435894 0.009713228 0.072482444
-0.09887986 -0.0945285 -0.014960758 0.044982266 -0.013333877 0.11653065 -0.14217614 0.0016691601
-0.013751083 0.09746413 0.1379065 -0.0784393 0.17040248 -0.16904943 -0.0884708 -0.07942395
-0.5621485 0.16072157 0.077859566 0.028579658 -0.0029476183 -0.028438037 0.15276526 0.056034446
0.047848348 0.14690557 -0.015880132 0.043898888 0.0021243838 0.084735446 0.11885519 -0.08752617
-0.15406322 0.075753376 0.16079645 -0.029286385 0.11931246 -0.06986322 -0.43361 0.039453942
-0.09340765 0.13604082 0.09261742 0.032089446 0.12887354 -0.09162041 -0.07296446 -0.08045098
-0.14697435 0.17011054 0.061686654 -0.10091254 0.069762595 0.04738685 -0.022077736 -0.098037556
0.02136686 0.098967984 0.16662443 -0.088298984 -0.0057619107 0.09124616 0.19259827 0.2887478
-0.08631269 0.030086935 0.0874631 0.00843188 0.061954744 -0.04484582 -0.28047532 0.017866677
-0.070245296 0.0058920463 0.015447586 -0.07219133 -0.097110845 -0.0959556 0.074958116 -0.044572584
0.17412683 -0.047950163 0.09810369 0.088547975 -0.1237475 -0.07015291 0.107390165 -0.056765415
0.011979053 0.0013486742 -0.12949078 0.006908216 0.11568791 0.041015666 0.17620905 0.16802827
-0.09235221 0.1645447 0.067830086 0.04268419 0.27238137 0.10086685 0.03023383 0.18540388
0.06508497 0.07502769 -0.20139848 -0.45047435 -0.031267114 0.19046389 0.10591277 0.0916209
-0.027352378 -0.10988902 0.19151331 -0.04653818 0.1301943 -0.01226544 0.19274864 0.025800675
-0.17574248 -0.08157215 -0.002874288 -0.06441324 0.01619015 -0.0011580624 0.21481581 0.16285816
-0.041407354 -0.07453555 -0.010035488 -0.015116547 -0.03960842 -0.104159094 0.00028274272 -0.009776516
0.08964361 0.15572731 0.13762103 0.0025314179 0.07345016 0.00096120924 0.018046414 0.06301941
0.10079344 0.065150134 0.04711755 0.09782193 0.04101258 -0.025584236 -0.0037573306 0.114991635
0.035548378 -0.035709187 0.00029354083 0.007363905 0.0030005183 0.08175693 -0.13950334 0.02848944
-0.10642952 0.05145564 -0.14224762 -0.09989431 -0.37939134 -0.12856482 0.09484339 0.17590575
0.14963001 0.12443019 0.0412379 0.13192149 0.14435703 -0.07946121 -0.20718426 0.036069166
0.031301465 -0.10059715 0.14464235 -0.085319184 -0.05057184 0.255692 -0.06840787 -0.18546009
-0.19470593 0.00071097247 0.19103758 -0.10372479 -0.12887223 -0.12878008 0.0015053788 0.08823064
-0.119373456 0.029440744 -0.089117475 0.06725752 0.40042248 -0.06516979 0.05288606 0.1025886
0.119738586 0.257369 0.05663787 -0.08725566 0.024269857 0.06947268 0.15695807 0.07360054
-0.036218002 0.057407204 -0.07618888 0.12428734 0.06129325 0.022222307 -0.15691963 -0.11032683
-0.15397552 0.21270736 0.0035252417 -0.17354888 0.1186457 0.037732992 -0.04555427 -0.1748615
0.002018364 -0.12203805 0.14385931 -0.08557797 -0.04178789 0.13071716 0.074000806 0.103671394
-0.0163431 -0.37568796 0.05829896 -0.094052054 0.15075172 0.14342976 0.052445285 -0.1577305
-0.056592003 -0.04046379 -0.020459345 -0.12300468 0.13612849 -0.0749997 0.04848154 0.064050004
00000000: 7a0f 91bd 0919 9c3a 32ef e73d aeb3 4d3c
00000010: 8187 df3c 1a09 133e 3b24 1f3c ad71 943d
00000020: 8681 cabd 2998 c1bd f81d 75bc 533f 383d
00000030: 5576 5abc 9fa7 ee3d 9f96 11be b8c7 da3a
00000040: 394c 61bc 469b c73d 5d37 0d3e c9a4 a0bd
00000050: fd7d 2e3e 4b1b 2dbe 2e30 b5bd 06a9 a2bd
00000060: f7e8 0fbf 3294 243e d674 9f3d e31f ea3c
00000070: d42c 41bb e3f6 e8bc 7f6e 1c3e 6084 653d
00000080: a1fc 433d 6a6e 163e 0d17 82bc 52cf 333d
00000090: 3f39 0b3b c789 ad3d 5a6a f33d ec40 b3bd
000000a0: c0c2 1dbe 9624 9b3d d3a7 243e 00ea efbc
000000b0: 175a f43d 7314 8fbd 2102 debe 759a 213d
000000c0: 834c bfbd 494e 0b3e 34ae bd3d 3970 033d
000000d0: 6df7 033e 7ba3 bbbd 646e 95bd 7cc3 a4bd
000000e0: 7280 16be 7531 2e3e 25ab 7c3d 3cab cebd
000000f0: b1df 8e3d b718 423d 5edc b4bc eac7 c8bd
00000100: 8e09 af3c baaf ca3d 989f 2a3e 19d6 b4bd
00000110: 69ce bcbb 44df ba3d 7b38 453e c0d6 933e
00000120: b5c4 b0bd e078 f63c db1f b33d de25 0a3c
00000130: 42c4 7d3d 40b0 37bd 769a 8fbe 235d 923c
00000140: c4dc 8fbd 1112 c13b df17 7d3c 0cd9 93bd
00000150: 0de2 c6bd 5f84 c4bd a483 993d be91 36bd
00000160: 4e4e 323e 6467 44bd 96ea c83d a458 b53d
00000170: 546f fdbd 54ac 8fbd 60ef db3d da82 68bd
00000180: ca43 443c ffc5 b03a 3b99 04be 515e e23b
00000190: c8ed ec3d 0b00 283d 2570 343e 9a0f 2c3e
000001a0: 2823 bdbd 687e 283e 80ea 8a3d 9ed5 2e3d
000001b0: 9275 8b3e 4793 ce3d f0ac f73c 84da 3d3e
000001c0: 454b 853d 1ea8 993d 673b 4ebe 93a4 e6be
000001d0: f211 00bd f708 433e cbe8 d83d bda3 bb3d
000001e0: 1812 e0bc 7f0d e1bd 111c 443e d29e 3ebd
000001f0: a851 053e fcf4 48bc e65f 453e f05b d33c
00000200: d6f5 33be 4d0f a7bd 8d5e 3cbb 17eb 83bd
00000210: 35a1 843c 20ca 97ba adf8 5b3e 4ac4 263e
00000220: c29a 29bd 18a6 98bd e36b 24bc 65ab 77bc
00000230: 703c 22bd 5d51 d5bd 163d 9439 ae2d 20bc
00000240: 1297 b73d fb76 1f3e 87ec 0c3e 25e6 253b
00000250: 0a6d 963d a9f9 7b3a 13d6 933c 5210 813d
00000260: cb6c ce3d 6f6d 853d 55fe 403d dd56 c83d
00000270: cffc 273d 0896 d1bc 8c3d 76bb bc80 eb3d
00000280: 2d9b 113d cc43 12bd 62e6 9939 ea4c f13b
00000290: 58a4 443b 2d70 a73d f7d9 0ebe b062 e93c
000002a0: b8f7 d9bd 26c3 523d 5ca9 11be 6395 ccbd
000002b0: 953f c2be 7fa6 03be 403d c23d a320 343e
000002c0: 9c38 193e 41d5 fe3d 12e9 283d 6d16 073e
000002d0: 54d2 133e 8fbc a2bd 1c28 54be 43bd 133d
000002e0: f735 003d e105 cebd 201d 143e d3bb aebd
000002f0: 6b24 4fbd 10ea 823e 6d19 8cbd 40e9 3dbe
00000300: fe60 47be 8e60 3a3a 5b9f 433e aa6d d4bd
00000310: 15f7 03be edde 03be 2150 c53a 44b2 b43d
00000320: 127a f4bd b72d f13c 3983 b6bd 50be 893d
00000330: 2d04 cd3e bd77 85bd 0e9f 583d f919 d23d
00000340: 8139 f53d dfc5 833e 1cfd 673d 18b3 b2bd
00000350: 94d1 c63c b147 8e3d 9eb9 203e e1bb 963d
00000360: 5459 14bd d123 6b3d ea08 9cbd 5c8a fe3d
00000370: a20e 7b3d 8e0b b63c 8aaf 20be 08f3 e1bd
00000380: c2ab 1dbe f5cf 593e be07 673b ccb6 31be
00000390: 84fc f23d e98d 1a3d 1d97 3abd e50e 33be
000003a0: 8746 043b 16ef f9bd db4f 133e 8143 afbd
000003b0: c729 2bbd b8da 053e bc8d 973d ab51 d43d
000003c0: f7e1 85bc 2c5a c0be e4ca 6e3d 5d9e c0bd
000003d0: a95e 1a3e 40df 123e ded0 563d 1b84 21be
000003e0: 04cd 67bd 5cbd 25bd 5b9a a7bc e1e9 fbbd
000003f0: 4465 0b3e 7199 99bd 9494 463d a62c 833d

model.0.bias f4 [256]
0.07111006 -0.09169694 -0.05535413 -0.071098596 -0.052058566 0.17241162 0.09390631 0.13454518
0.19165173 0.1397868 0.04260031 0.101279326 -0.16714483 0.2156655 -0.019083476 0.01042802
-0.051182523 -0.03596672 -0.017662942 0.04411818 -0.062186684 -0.026938597 0.005777816 0.05859105
0.10258143 0.0047747046 -0.17506287 0.1327131 -0.1267211 0.025883218 0.14939135 -0.06012854
-0.0851058 -0.13236453 0.16953558 -0.03110388 -0.024166856 0.040353056 0.07874084 0.14498721
-0.059485447 -0.0908815 0.014855738 0.19213353 -0.15074499 -0.11803957 -0.10958981 0.0044301795
0.17501937 -0.02649664 0.14912531 0.15047558 -0.1703732 -0.08452624 0.13939478 -0.09114824
0.18192703 -0.082351185 -0.17054689 -0.12880415 -0.11491794 -0.0048900633 0.16463156 0.12025388
0.13750315 -0.04811298 0.019571599 0.04603232 -0.1422608 0.07872082 -0.029012892 0.067586794
0.18620296 0.118675835 0.04564668 0.13442107 -0.10349189 0.10014197 -0.014217623 0.050024357
-0.0026596154 -0.07694208 0.039955616 -0.08467922 -0.11398644 0.1462684 0.1392609 -0.114922315
-0.058918647 -0.0920995 0.094864786 0.015805293 0.0835927 0.03260856 0.15257938 0.042614847
0.014710105 0.0058815973 0.07544147 -0.1806757 -0.027102992 -0.017754767 0.14308546 0.16344188
-0.08823962 -0.10923315 0.0061657536 0.14498793 0.03744961 0.20230785 -0.017183157 0.0962175
-0.22725424 0.10334763 -0.12733181 -0.117860645 -0.033331487 0.08988355 -0.16142096 0.20367107
0.0016859841 0.12650053 0.024992978 0.047335822 -0.113676466 -0.08955391 -0.12753874 -0.040763635
-0.09530035 0.017499942 -0.10615155 -0.023239924 -0.06993611 -0.031660266 0.07525586 0.13425544
-0.15428223 0.18633223 0.20179167 0.07088101 0.123266734 -0.064311944 -0.03605559 0.23715885
-0.0062684393 -0.13495308 -0.07719474 -0.11318424 0.15173446 -0.0091644665 0.162382 -0.025009707
0.013094441 -0.049675994 0.119026646 0.031014338 0.101769865 0.080510356 -0.13721223 -0.04456138
-0.12411273 0.08918313 -0.05010082 0.16309194 0.10775265 0.110403016 0.08947045 -0.105444476
-0.05211648 0.17465492 -0.02034659 -0.09058108 0.080638334 -0.10218615 -0.1848757 -0.050121233
0.022006549 0.09081777 0.011003089 0.16031691 0.09979531 -0.0818874 -0.010450175 0.101699
-0.12526065 0.0597334 -0.05059946 0.080548555 0.072048955 -0.006407897 0.021173887 0.12392189
-0.01883015 0.021630155 -0.061324876 -0.019594593 -0.03598572 -0.16619426 0.056257796 0.1689293
0.08622591 -0.070301384 -0.1593632 0.10163972 0.038381156 0.12580836 -0.17450546 0.1099144
-0.094403766 0.029524596 0.05533533 0.022959312 0.006754026 -0.027774971 0.025278322 0.19786385
0.016933527 0.11815977 -0.04673993 -0.08192256 0.10008718 -0.02021572 0.012010813 -0.0605642
0.0935564 0.09155238 -0.18168543 -0.036585957 -0.08019585 -0.06695003 0.07688219 0.04005712
0.0015864355 0.13265759 -0.06879598 -0.027999932 -0.068176866 -0.08863745 -0.13138542 0.028538713
0.0013702554 -0.044815294 0.17701393 0.08365479 -0.1275266 0.18903553 -0.029592976 -0.025780842
0.081105284 -0.018036673 0.14619264 -0.12653914 0.1231151 0.018793263 0.029756019 0.13059954
00000000: 27a2 913d 9bcb bbbd 03bb 62bd 249c 91bd
00000010: 5d3b 55bd ac8c 303e f451 c03d 36c6 093e
00000020: 5a40 443e 4524 0f3e aa7d 2e3d 896b cf3d
00000030: 0428 2bbe 6bd7 5c3e f354 9cbc 49da 2a3c
00000040: c4a4 51bd d751 13bd e0b1 90bc 44b5 343d
00000050: 77b7 7ebd 55ae dcbc d553 bd3b 2bfd 6f3d
00000060: 3616 d23d 2075 9c3b ae43 33be f1e5 073e
00000070: 2dc3 01be 0b09 d43c 0cfa 183e 5849 76bd
00000080: f34b aebd 918a 07be bc9a 2d3e 90cd febc
00000090: 92f9 c5bc 3f49 253d e142 a13d 8777 143e
000000a0: 03a7 73bd 1420 babd 7b65 733c a7be 443e
000000b0: e55c 1abe bbbe f1bd 9f70 e0bd 0a2b 913b
000000c0: 4738 333e 7b0f d9bc 4eb4 183e 4516 1a3e
000000d0: 5076 2ebe 181c adbd 81bd 0e3e eeab babd
000000e0: 144b 3a3e bda7 a8bd d8a3 2ebe 3ce5 03be
000000f0: 195a ebbd d33c a0bb 2d95 283e ab47 f63d
00000100: a0cd 0c3e 1e12 45bd 9e54 a03c 638c 3c3d
00000110: d1ac 11be 6238 a13d 72ac edbc f26a 8a3d
00000120: fdab 3e3e 510c f33d 03f8 3a3d ada5 093e
00000130: 8ef3 d3bd 3c17 cd3d 08f1 68bc 57e6 4c3d
00000140: f14c 2ebb cf93 9dbd 80a8 233d 4d6c adbd
00000150: b971 e9bd 62c7 153e 699a 0e3e 645c ebbd
00000160: ae54 71bd aa9e bcbd 7848 c23d 1a7a 813c
00000170: a632 ab3d 8e90 053d c53d 1c3e e88c 2e3d
00000180: a702 713c 6aba c03b 0f81 9a3d 0d03 39be
00000190: 1807 debc 7272 91bc ff84 123e 4f5d 273e
000001a0: f9b6 b4bd a1b5 dfbd 170a ca3b b777 143e
000001b0: c364 193d ca29 4f3e b1c3 8cbc ae0d c53d
000001c0: 56b5 68be eca7 d33d 4563 02be ec60 f1bd
000001d0: 9986 08bd de14 b83d 894b 25be 268f 503e
000001e0: 3dfc dc3a 5b89 013e 13be cc3c 35e3 413d
000001f0: 35cf e8bd 0a68 b7bd 8499 02be c5f7 26bd
00000200: d42c c3bd 0a5c 8f3c fc65 d9bd a761 bebc
00000210: aa3a 8fbd 32ae 01bd bf1f 9a3d 427a 093e
00000220: 29fc 1dbe e0cd 3e3e 7aa2 4e3e 102a 913d
00000230: 4573 fc3d fbb5 83bd 07af 13bd c5d9 723e
00000240: 7b67 cdbb 2431 0abe 4718 9ebd 24cd e7bd
00000250: 4760 1b3e 8f26 16bc 7847 263e 28e1 ccbc
00000260: 118a 563c 0e79 4bbd 3ec4 f33d c811 fe3c
00000270: b86c d03d 9de2 a43d 5d81 0cbe fe85 36bd
00000280: d12e febd a5a5 b63d 8436 4dbd 9301 273e
00000290: 6cad dc3d fa1a e23d 493c b73d 46f3 d7bd
000002a0: 1778 55bd bdd8 323e e4ad a6bc 9382 b9bd
000002b0: b625 a53d f946 d1bd 0e50 3dbe ec4b 4dbd
000002c0: 1447 b43c abfe b93d 4d46 343c 1e2a 243e
000002d0: 7c61 cc3d 95b4 a7bd 3637 2bbc 9147 d03d
000002e0: 5444 00be 02ab 743d 6141 4fbd a4f6 a43d
000002f0: 678e 933d 56f9 d1bb dc74 ad3c c3ca fd3d
00000300: b041 9abc b931 b13c cb2f 7bbd d784 a0bc
00000310: c365 13bd d42e 2abe 936e 663d cdfb 2c3e
00000320: 3697 b03d 2cfa 8fbd 1b30 23be 7c28 d03d
00000330: 8f35 1d3d e8d3 003e 8fb1 32be cd1a e13d
00000340: c356 c1bd 91dd f13c 4da7 623d 2b15 bc3c
00000350: e050 dd3b 5688 e3bc 7c14 cf3c d29c 4a3e
00000360: 2eb8 8a3c c0fd f13d 5e72 3fbd 04c7 a7bd
00000370: 82fa cc3d 709b a5bc 00c9 443c 2b12 78bd
00000380: 7f9a bf3d d07f bb3d bf0b 3abe 28db 15bd
00000390: b93d a4bd 191d 89bd 6974 9d3d ef12 243d
000003a0: f1ef cf3a 64d7 073e e8e4 8cbd 1d60 e5bc
000003b0: 50a0 8bbd 8d87 b5bd e689 06be 05ca e93c
000003c0: 249a b33a 3e90 37bd 2443 353e 3453 ab3d
000003d0: 5596 02be 8892 413e f86c f2bc 5832 d3bc
000003e0: 871a a63d a5c1 93bc 86b3 153e 7a93 01be
000003f0: c523 fc3d 54f4 993c e5c2 f33c e3bb 053e

model.2.weight f4 [256, 256]
0.0266641 0.058650315 -0.009734725 0.06697773 -0.0018521547 -0.07613004 -0.13092746 0.01881007
0.05991804 0.043741856 0.07137662 0.002294764 -0.08285772 0.05079664 0.04069724 0.0009482688
0.036574923 -0.08588022 -0.006010753 -0.039217416 -0.10809361 -0.044373676 0.062362168 0.0043131886
-0.07042939 -0.080254264 0.07153803 0.04980472 0.055133503 -0.07590744 0.0068437275 -0.024165949
-0.0019014188 -0.02062849 0.0025193621 -0.09304108 0.036348835 -0.04815699 -0.08053715 -0.03912914
-0.042390272 -0.022990424 -0.00056809 -0.075815134 -0.0046023936 0.029248398 0.045870725 -0.0681001
0.00011194451 0.03568163 0.10405323 -0.0633949 0.036773365 0.030373752 -0.020385155 0.011233345
-0.005365514 0.009425432 0.07091847 0.016670695 0.06382732 0.0033979928 -0.05985872 -0.035304233
0.028150631 -0.039906222 0.052139875 0.039468862 -0.056359444 0.06083771 0.026389515 0.005404273
-0.093285784 -0.06389074 0.14338553 0.013284292 -0.009368564 0.040288974 0.13653666 0.002537593
-0.051734984 -0.050117515 -0.05199355 -0.06652012 0.030742401 0.035337787 0.048421234 0.0446307
0.019539269 0.05552851 0.07375155 -0.074747235 -0.043744344 -0.06867305 -0.03018614 -0.078971155
-0.006613251 0.025919221 0.0020555356 0.038098607 -0.013613292 -0.016535867 0.013952353 -0.017388716
-0.00025856216 -0.034618225 -0.02086706 0.018847704 0.08546728 0.11261179 -0.013439505 -0.04240892
0.051280856 0.016798945 0.07513005 0.015151153 0.031434827 0.01557327 -0.03325095 -0.039613746
-0.10746674 0.019867428 -0.15561943 -0.05392581 -0.013684975 -0.037944824 0.003746471 -0.070337944
0.05338642 -0.005113838 0.09181453 0.08713481 0.032083366 0.057230983 -0.07406321 0.012981054
0.01138533 -0.003706483 -0.0062584053 0.07923229 0.04192683 0.06972446 0.05361562 0.023820514
-0.00016087768 0.062467076 -0.031175183 -0.08335153 0.07239019 0.021179449 -0.1261789 0.004568094
0.01975347 -0.036690537 0.066243485 -0.006052704 0.029790558 0.08055957 -0.019194305 0.036223944
-0.06110314 -0.039253466 0.010352952 0.07240195 -0.07110409 -0.019111628 0.06276964 0.07857983
0.072563775 0.06240734 -0.08398099 -0.007240386 0.045843802 0.06024277 0.02624981 0.04474015
0.0031085417 0.01911276 0.03587559 -0.1054218 -0.07063826 -0.041525595 -0.035116307 0.11763225
-0.020925255 0.05596116 0.032488167 -0.073505834 0.052120306 -0.020499941 0.069410846 0.034026828
-0.059824962 -0.0062811347 0.06292133 -0.05485673 0.08041744 -0.05881608 1.3422783e-05 -0.031421434
0.026309704 0.015960887 -0.07462625 0.038143147 -0.019884836 -0.03120324 -0.06979858 0.055177163
-0.015640777 -0.015764577 0.015930884 0.07874503 0.004456757 -0.01956471 -0.024963558 -0.029094413
-0.09849084 -0.060971975 -0.1084784 0.0030203615 0.09697847 -0.034818128 -0.056631904 -0.06970378
0.0017655861 -0.03774442 0.0236625 -0.0057973554 -0.051346302 -0.002737634 -0.021704014 0.048247315
-0.017403577 0.016179547 0.032579266 -0.023595147 -0.03438735 -0.03373372 0.025069553 0.025632907
-0.020178635 -0.058357105 -0.046282813 -0.050018255 -0.030223563 -0.08003931 -0.008239488 -0.021350345
-0.0011445723 0.024711562 0.034331597 0.031027677 -0.049170047 -0.02487796 0.014908853 0.020600224
00000000: ac6e da3c 503b 703d 657e 1fbc 9f2b 893d
00000010: 00c4 f2ba 11ea 9bbd d911 06be 9317 9a3c
00000020: 9e6c 753d a92a 333d e82d 923d c063 163b
00000030: 4fb1 a9bd 2310 503d 26b2 263d 3e95 783a
00000040: 96cf 153d f8e1 afbd daf5 c4bb 71a2 20bd
00000050: 2f60 ddbd 2cc1 35bd 796f 7f3d a655 8d3b
00000060: 493d 90bd 595c a4bd 8882 923d 0900 4c3d
00000070: abd3 613d 5c75 9bbd 5941 e03b abf7 c5bc
00000080: 0739 f9ba 14fd a8bc e21b 253b 528c bebd
00000090: 84e2 143d 4440 45bd a9f0 a4bd e145 20bd
000000a0: 6ca1 2dbd 6a56 bcbc e0eb 14ba f744 9bbd
000000b0: adcf 96bb 569a ef3c f1e2 3b3d 1178 8bbd
000000c0: c0c3 ea38 e726 123d dc19 d53d 2fd5 81bd
000000d0: ab9f 163d 60d2 f83c c5fe a6bc 100c 383c
000000e0: 32d1 afbb 216d 1a3c b43d 913d fb90 883c
000000f0: e6b7 823d dcb0 5e3b 6b2e 75bd 2c9b 10bd
00000100: 279c e63c b574 23bd 9f90 553d 1aaa 213d
00000110: 29d9 66bd f630 793d d32e d83c 5416 b13b
00000120: 9e0c bfbd 26d9 82bd a8d3 123e 5ca6 593c
00000130: 9b7e 19bc 0d06 253d 44d0 0b3e bf4d 263b
00000140: 10e8 53bd 0648 4dbd 30f7 54bd b33b 88bd
00000150: 7dd7 fb3c 5bbe 103d 5855 463d aece 363d
00000160: d110 a03c dd71 633d 0d0b 973d 1415 99bd
00000170: 452d 33bd 75a4 8cbd ed48 f7bc a1bb a1bd
00000180: f8b3 d8bb 8c54 d43c 2ab6 063b 490d 1c3d
00000190: 490a 5fbc 3a76 87bc 6998 643c c872 8ebc
000001a0: a08f 87b9 d7cb 0dbd 66f1 aabc 8066 9a3c
000001b0: 7809 af3d 03a1 e63d 5f31 5cbc fab4 2dbd
000001c0: e00b 523d f19d 893c c9dd 993d 8b3c 783c
000001d0: cec1 003d 0727 7f3c 2632 08bd 0642 22bd
000001e0: 8617 dcbd 04c1 a23c b35a 1fbe 4fe1 5cbd
000001f0: f236 60bc 086c 1bbd 5a87 753b 570d 90bd
00000200: b8ab 5a3d fb91 a7bb 4209 bc3d bc73 b23d
00000210: d969 033d 096b 6a3d 74ae 97bd 7dae 543c
00000220: 8989 3a3c 77e8 72bb 4f13 cdbb 8a44 a23d
00000230: 78bb 2b3d b3cb 8e3d 0d9c 5b3d 3d23 c33c
00000240: 46b1 28b9 7add 7f3d 1963 ffbc 35b4 aabd
00000250: 4f41 943d 8680 ad3c 0b35 01be f3af 953b
00000260: 07d2 a13c d148 16bd aaaa 873d c355 c6bb
00000270: 540b f43c 6afc a43d 603d 9dbc 8f5f 143d
00000280: 4947 7abd 3ec8 20bd 6e9f 293c 7947 943d
00000290: 059f 91bd fd8f 9cbc 5e8d 803d 76ee a03d
000002a0: 519c 943d d79e 7f3d 3afe abbd c340 edbb
000002b0: b6c6 3b3d 1fc1 763d d709 d73c 7341 373d
000002c0: adb8 4b3b 5d92 9c3c 48f2 123d 62e7 d7bd
000002d0: cbaa 90bd be16 2abd 1ed6 0fbd 2de9 f03d
000002e0: 716b abbc 8837 653d 5012 053d 3a8a 96bd
000002f0: 1a7c 553d 7eef a7bc 4627 8e3d b75f 0b3d
00000300: 050b 75bd fad1 cdbb e6dc 803d 73b1 60bd
00000310: e6b1 a43d 21e9 70bd 6a32 6137 c3b3 00bd
00000320: 7387 d73c 68c0 823c a6d5 98bd fd3b 1c3d
00000330: 86e5 a2bc f09d ffbc 8ff2 8ebd 7301 623d
00000340: 1621 80bc b724 81bc 7c81 823c 1345 a13d
00000350: fd09 923b 2c46 a0bc 6080 ccbc 6857 eebc
00000360: 91b5 c9bd c0bd 79bd ec29 debd 42f1 453b
00000370: a69c c63d 749d 0ebd dbf6 67bd dbc0 8ebd
00000380: 3d6b e73a e599 1abd dcd7 c13c bef7 bdbb
00000390: 8050 52bd e069 33bb 9ecc b1bc fa9e 453d
000003a0: f291 8ebc f88a 843c d671 053d 9c4a c1bc
000003b0: c0d9 0cbd 5f2c 0abd aa5e cd3c 1afc d13c
000003c0: aa4d a5bc dc07 6fbd 0c93 3dbd f1df 4cbd
000003d0: 6897 f7bc a6eb a3bd ebfe 06bc ebe6 aebc
000003e0: 7905 96ba e76f ca3c 4a9f 0c3d c12d fe3c
000003f0: 8866 49bd ddcc cbbc 4344 743c cdc1 a83c

model.2.bias f4 [256]
0.06411729 0.0049490654 -0.022493005 -0.027236596 -0.015367423 -0.031813722 0.008867878 0.046027925
0.021884462 0.054195173 0.022564095 0.044721972 -0.013533721 -0.015760444 -0.017770668 0.0029621513
0.05558701 0.059251733 0.053076804 -0.038530305 0.047087755 -0.0090942755 0.04245222 -0.02036425
0.071867876 -0.018346153 -0.06844962 0.014308598 0.048026744 0.0016141083 0.008443112 0.016955284
0.091870084 0.030637052 0.06307987 0.038364515 -0.048466846 -0.04641152 -0.03465473 0.03738751
-0.05349005 0.0680678 -0.04174836 0.014780122 0.0031032565 0.10439209 0.056844458 0.009297758
-0.06037389 0.05240856 -0.03504755 0.060720995 -0.0065189614 0.08868296 0.09006264 0.09639214
0.093839675 0.029986674 0.01914492 -0.056747127 0.06887101 0.0601463 -0.032942217 0.0501124
0.04282048 0.028174097 -0.03937571 -0.008471545 0.018202532 0.050947454 0.04617378 -0.06362964
-0.0014130487 -0.0070773186 0.05927046 -0.026677134 -0.015444394 0.001246606 -0.010802228 0.018424861
0.09655089 0.06908012 0.028432101 0.008744618 -0.021837361 0.034541085 -0.019475978 0.0691107
-0.016120523 -0.015479541 -0.05388157 0.050057363 0.006014768 -0.075672016 0.08613423 0.08048172
-0.038693663 -0.06501263 0.064737916 0.009135441 -0.036604043 0.05440143 -0.010993868 0.0150524005
-0.05724239 0.01628962 -0.014706428 0.1469008 0.029129155 -0.0011337735 -0.03124351 0.09563766
-0.050890252 0.053790048 0.041546013 0.008796308 0.05525526 0.1149457 -0.0065053706 -0.07892613
0.09197572 -0.038517203 0.06952099 0.07037632 0.13673235 0.123863935 -0.037021715 0.0042460035
0.04785991 -0.03051827 0.03767363 0.0716792 0.08607236 0.08235522 0.046203226 -0.0136099495
0.050800137 0.0261408 0.04555859 0.07091021 -0.05686434 0.03605395 0.031159462 -0.020813223
0.059535503 -0.008467313 0.003424282 0.07464285 0.010246454 0.029773775 -0.035184745 0.11184655
0.02643924 0.032448415 -0.007107826 0.10865646 -0.010996037 -0.043552686 -0.04084817 -0.06410804
-0.025059242 0.10324893 -0.047670703 0.0034982888 0.05740764 0.040869333 0.034140773 0.09999153
-0.02679203 -0.030809926 -0.02714884 -0.042860504 0.04349228 -0.03649745 -0.041265268 0.0421167
0.052027144 0.03767691 0.040607467 0.037472777 -0.016048966 1.0847845e-05 -0.020803919 0.10509327
0.062442034 -0.05955976 0.034396112 -0.08335724 -0.011479184 0.045868777 -0.018316973 0.10345154
-0.0072784866 -0.021480625 0.086645246 -0.07365361 -0.039845888 -0.020418996 -0.006479759 -0.05086483
0.009533087 -0.03823507 0.065651715 0.04729564 -0.02917106 0.017786285 -0.057621125 0.005461217
-0.029830538 -0.022673866 -0.035714857 0.03658847 -0.018985644 0.07042696 0.019904632 -0.009802699
0.026790095 0.0027291211 -0.052420825 -0.037514936 0.08125074 0.07157698 -0.047412347 0.046355486
-0.005744175 -0.017877735 0.04856601 0.0210052 -0.010126119 0.068619326 0.014371526 -0.022776676
-0.0048816716 0.052163754 -0.014136824 -0.015674317 -0.06270368 0.026048161 0.063049585 0.08856263
0.006107152 0.023484647 0.0142623605 -0.053545475 0.060195085 -0.03896932 0.056289658 -0.00022223976
0.09597031 0.006374263 0.012403807 -0.032064676 0.03991898 0.037577372 0.021226015 0.011080199
00000000: ed4f 833d c52b a23b 4043 b8bc 481f dfbc
00000010: a5c7 7bbc 1b4f 02bd 934a 113c c787 3c3d
00000020: 0b47 b33c c2fb 5d3d 56d8 b83c 632e 373d
00000030: 8abc 5dbc 0c1c 81bc cb93 91bc a720 423b
00000040: 34af 633d f2b1 723d 1067 593d f4d1 1dbd
00000050: 17df 403d 2800 15bc 61e2 2d3d edd2 a6bc
00000060: 772f 933d ac4a 96bc 502f 8cbd 9c6e 6a3c
00000070: b1b7 443d 7d90 d33a fa54 0a3c cfe5 8a3c
00000080: 6226 bc3d 8efa fa3c 0530 813d 1c24 1d3d
00000090: 2c85 46bd 021a 3ebd 1ef2 0dbd a523 193d
000000a0: 6218 5bbd 2167 8b3d 5400 2bbd 5328 723c
000000b0: 0160 4b3b 85cb d53d bcd5 683d a055 183c
000000c0: 9d4a 77bd 5caa 563d 058e 0fbd 94b6 783d
000000d0: 039d d5bb 699f b53d c372 b83d 3e69 c53d
000000e0: 042f c03d 9da6 f53c cfd5 9c3c ad6f 68bd
000000f0: 3e0c 8d3d f75b 763d 6bee 06bd a942 4d3d
00000100: 8764 2f3d 5dcd e63c 6d48 21bd 3ccc 0abc
00000110: 7a1d 953c 47ae 503d b820 3d3d 4250 82bd
00000120: 0c36 b9ba dae8 e7bb 95c5 723d 018a dabc
00000130: 7c0a 7dbc 2865 a33a d4fb 30bc bcef 963c
00000140: 79bc c53d e179 8d3d 70ea e83c 9645 0f3c
00000150: 44e4 b2bc f47a 0d3d 168c 9fbc e989 8d3d
00000160: 300f 84bc e79d 7dbc ecb2 5cbd f308 4d3d
00000170: 8817 c53b eef9 9abd 2567 b03d 9ad3 a43d
00000180: 3f7d 1ebd 5725 85bd 5095 843d d1ac 153c
00000190: 1fee 15bd 09d4 5e3d a01f 34bc 589e 763c
000001a0: ff76 6abd cf71 853c 3bf3 70bc 2a6d 163e
000001b0: 44a0 ee3c 209b 94ba 64f2 ffbc addd c33d
000001c0: 4c72 50bd f452 5c3d 272c 2a3d 641e 103c
000001d0: 5753 623d a768 eb3d 012b d5bb 06a4 a1bd
000001e0: c45d bc3d 37c4 1dbd 0561 8e3d 7621 903d
000001f0: 9103 0c3e 60ac fd3d 15a4 17bd 0f22 8b3b
00000200: c108 443d 7301 fabc aa4f 1a3d 8bcc 923d
00000210: b546 b03d dba9 a83d 983f 3d3d 44fc 5ebc
00000220: ce13 503d 3b25 d63c a59b 3a3d 5f39 913d
00000230: 95ea 68bd 4fad 133d 2142 ff3c 7e80 aabc
00000240: 80db 733d 7cba 0abc eb69 603b 5ade 983d
00000250: bee0 273c 22e8 f33c e11d 10bd ce0f e53d
00000260: 1b97 d83c a1e8 043d c4e8 e8bb 4787 de3d
00000270: b928 34bc 4d64 32bd 6950 27bd 134b 83bd
00000280: 0a49 cdbc 2d74 d33d 5b42 43bd 8c43 653b
00000290: 4624 6b3d 9a66 273d 32d7 0b3d 5cc8 cc3d
000002a0: f67a dbbc 1965 fcbc 3e67 debc 7f8e 2fbd
000002b0: f624 323d 5a7e 15bd c505 29bd 9082 2c3d
000002c0: 6a1a 553d 1b53 1a3d 0454 263d 0e7d 193d
000002d0: 1f79 83bc 24ff 3537 fb6c aabc 243b d73d
000002e0: 38c3 7f3d eff4 73bd f0e2 0c3d 33b7 aabd
000002f0: 3013 3cbc e6e0 3b3d 7a0d 96bc 67de d33d
00000300: 5f80 eebb 23f8 afbc 1073 b13d b4d7 96bd
00000310: 7135 23bd bd45 a7bc 2854 d4bb a457 50bd
00000320: aa30 1c3c 609c 1cbd 6874 863d 13b9 413d
00000330: 26f8 eebc 8bb4 913c 2104 6cbd 02f4 b23b
00000340: 2c5f f4bc 8bbe b9bc be49 12bd cbdd 153d
00000350: c887 9bbc 033c 903d 0a0f a33c 809b 20bc
00000360: e776 db3c 0edb 323b 38b7 56bd 43a9 19bd
00000370: ca66 a63d f496 923d 7333 42bd 40df 3d3d
00000380: a239 bcbb 5474 92bc 27ed 463d 1913 ac3c
00000390: 05e8 25bc 4a88 8c3d 8d76 6b3c 2796 babc
000003a0: 6ef6 9fbb a9a9 553d 239e 67bc 6d67 80bc
000003b0: c96a 80bd f462 d53c 2420 813d 5360 b53d
000003c0: 811e c83b e062 c03c adac 693c 8052 5bbd
000003d0: 1f8f 763d 4b9e 1fbd fc8f 663d 0809 69b9
000003e0: 158c c43d 32df d03b 5639 4b3c 4056 03bd
000003f0: 1682 233d bbea 193d 2ee2 ad3c b989 353c

model.4.weight f4 [256, 256]
0.092326045 -0.05109579 0.0076689296 -0.056305982 -0.03686159 0.02634924 -0.029900903 -0.048184223
0.034295093 0.04164681 -0.011786409 0.01818935 -0.12213068 0.02171451 0.009140541 -0.06446115
0.020017656 0.06652029 -0.097562134 0.053693403 -0.019628268 0.05729818 -0.042956263 -0.02901709
0.016824381 -0.108067535 -0.034736253 0.10435188 0.007639363 -0.031100284 0.04758575 0.04699885
0.004134127 -0.13037685 -0.024313023 -0.010162415 -0.07498019 -0.01462654 0.0047759996 0.002697505
-0.10615108 0.05158938 0.014378715 0.0012748603 -0.0821038 -0.048410162 -0.0867895 0.042749777
-0.045419347 0.014035263 0.054418463 -0.16770822 -0.068105444 0.053938117 -0.032394886 -0.04455428
0.08752633 0.0101375785 -0.07354747 0.0737252 0.009726403 -0.16076785 -0.06331135 -0.0037226258
0.0019085705 -0.103959955 -0.118927374 0.009534673 -0.07359841 0.0019837085 0.026667487 -0.0409293
-0.04679848 -0.005323993 -0.07302028 0.06634449 -0.011763756 0.13599136 0.051183682 0.049244538
-0.07097583 -0.0097439075 0.028413108 0.04621327 0.14243951 -0.049778216 -0.027514054 -0.013206182
0.012597853 -0.034952562 0.08664276 -0.03313055 -0.005623533 -0.009188073 -0.0024446964 -0.07448293
0.12312235 -0.029342951 -0.057820532 -0.096363306 0.060961835 0.0320747 -0.0403771 -0.0037288885
0.045932714 0.014389059 -0.10121705 -0.054312438 0.015860658 0.105517454 -0.12507099 0.059268452
0.18122593 -0.16623144 0.007735289 0.012960078 -0.09349073 -0.004868027 -0.02005837 0.033694725
0.005333804 0.085088775 0.0027001973 -0.03294597 0.0044239243 0.003072816 -0.03979439 -0.0015377145
-0.058671065 -0.023279492 0.14478314 -2.8788907e-05 0.07380427 -0.068124264 -0.002564783 0.03534015
0.04327406 -0.098598205 0.017527469 -0.053358056 0.032187086 0.03974779 -0.024079714 -0.06903628
0.06438265 -0.009624033 0.14908855 0.010631998 -0.009287362 0.048832696 -0.03398624 -0.05106855
-0.009108085 0.094748184 -0.06342545 -0.05090888 0.03031892 -0.01862328 -0.12344871 0.005730822
-0.099128276 0.027760573 -0.0075153015 -0.02682194 -0.05040827 0.098234005 0.01975699 -0.031063747
-0.07020383 0.04136088 0.04135185 -0.026593879 0.075746074 -0.0013248058 0.018026315 0.053993374
-0.02640097 0.076774165 -0.005362394 0.06165823 0.06806776 0.074649975 0.008307068 -0.06467241
-0.06828348 -0.06822158 -0.0024769527 0.034170896 -0.08038452 0.07572251 -0.038958848 -0.0053586736
-0.118406236 0.015732016 0.009676868 0.03468639 0.050313137 -0.06752224 -0.09224748 0.0016717721
0.02569924 -0.0026019015 -0.061640844 -0.050076053 0.06687579 -0.00043784716 0.103184715 0.034404118
0.035328347 0.012453584 -0.07965242 -0.031033082 -0.0008920642 -0.060387913 -0.029410299 -0.02277175
-0.0063658543 0.03212382 0.08580819 0.077131 0.0027489832 0.060360696 -0.06581637 0.16740194
0.2188826 -0.101302356 -0.029120496 -0.08607921 0.0025880032 -0.035043996 -0.032694753 -0.010968376
-0.010389572 0.056254175 -0.06022443 -0.08566063 -0.047635656 0.05969476 -0.0060019684 0.027331559
-0.05985604 0.081617884 -0.026801154 0.067527235 0.022271225 -0.06688418 0.063113675 -0.055038292
-0.03828592 0.024224825 0.025061525 -0.005766082 0.017293144 -0.04588934 0.13461669 -0.12481786
00000000: 7015 bd3d d249 51bd a54b fb3b 1aa1 66bd
00000010: 2efc 16bd 5dda d73c bdf2 f4bc d25c 45bd
00000020: 0379 0c3d d895 2a3d c81b 41bc d501 953c
00000030: a61f fabd a1e2 b13c 35c2 153c 3504 84bd
00000040: 11fc a33c ca3b 883d a8ce c7bd 9ded 5b3d
00000050: 76cb a0bc 7fb1 6a3d e8f2 2fbd 40b5 edbc
00000060: 49d3 893c 8352 ddbd 9a47 0ebd 70b6 d53d
00000070: 9f53 fa3b 06c6 febc 47e9 423d de81 403d
00000080: 9277 873b 8281 05be 1b2c c7bc 4280 26bc
00000090: 378f 99bd 28a4 6fbc fd7f 9c3b a0c8 303b
000000a0: bd65 d9bd 634f 533d b494 6b3c 3719 a73a
000000b0: 0926 a8bd bc49 46bd b2be b1bd 641a 2f3d
000000c0: a309 3abd 29f4 653c e5e5 5e3d b4bb 2bbe
000000d0: de7a 8bbd 37ee 5c3d 80b0 04bd 8c7e 36bd
000000e0: 0141 b33d 1618 263c 0ea0 96bd 3dfd 963d
000000f0: 7e5b 1f3c 54a0 24be 62a9 81bd 4cf7 73bb
00000100: 0029 fa3a f5e8 d4bd 3290 f3bd 5137 1c3c
00000110: c3ba 96bd 1b01 023b c675 da3c 7ba5 27bd
00000120: c3af 3fbd e474 aebb a88b 95bd 9fdf 873d
00000130: c5bc 40bc 5241 0b3e fba5 513d a4b4 493d
00000140: c75b 91bd e9a4 1fbc 9bc2 e83c 204a 3d3d
00000150: aadb 113e 3ee4 4bbd 2765 e1bc be5e 58bc
00000160: 3a67 4e3c 6b2a 0fbd c271 b13d e6b3 07bd
00000170: 9d45 b8bb 9289 16bc 3337 20bb 828a 98bd
00000180: 9227 fc3d a160 f0bc 39d5 6cbd 205a c5bd
00000190: 1eb3 793d c360 033d 7562 25bd 5e60 74bb
000001a0: f123 3c3d 16c0 6b3c e24a cfbd b876 5ebd
000001b0: 36ee 813c 8919 d83d 9c12 00be 7ac3 723d
000001c0: 4a93 393e 9338 2abe 4f78 fd3b 8256 543c
000001d0: 1178 bfbd f883 9fbb 7351 a4bc 7b03 0a3d
000001e0: 31c7 ae3b 0643 ae3d cbf5 303b 5af2 06bd
000001f0: 91f6 903b 4c61 493b 71ff 22bd 238d c9ba
00000200: 1251 70bd a2b4 bebc 0842 143e b57f f1b7
00000210: b126 973d bc84 8bbd eb15 28bb d5c0 103d
00000220: 2440 313d dbed c9bd c495 8f3c fa8d 5abd
00000230: 9bd6 033d 94ce 223d d242 c5bc e562 8dbd
00000240: 0ddb 833d 1fae 1dbc abaa 183e d531 2e3c
00000250: 052a 18bc cb04 483d 2835 0bbd 422d 51bd
00000260: 143a 15bc 560b c23d 34e5 81bd d485 50bd
00000270: 625f f83c d98f 98bc add2 fcbd 9fc9 bb3b
00000280: c403 cbbd 246a e33c eb42 f6bb afb9 dbbc
00000290: e778 4ebd e92e c93d 69d9 a13c 6679 febc
000002a0: 07c7 8fbd 076a 293d 8f60 293d 68db d9bc
000002b0: c220 9b3d 1ba5 adba ecab 933c 2828 5d3d
000002c0: d946 d8bc c63b 9d3d 05b7 afbb 578d 7c3d
000002d0: 1c67 8b3d 16e2 983d 5e1a 083c f872 84bd
000002e0: 36d8 8bbd c1b7 8bbd 5f54 22bb c8f6 0b3d
000002f0: a4a0 a4bd 6714 9b3d 5093 1fbd d097 afbb
00000300: f87e f2bd 6ee0 803c ba8b 1e3c 5113 0e3d
00000310: 2615 4e3d 1a49 8abd 3fec bcbd 5d1f db3a
00000320: 3687 d23c aa84 2abb 1c7b 7cbd 8c1c 4dbd
00000330: 2df6 883d da8e e5b9 8252 d33d 55eb 0c3d
00000340: 75b4 103d 1e0a 4c3c cf20 a3bd 1739 febc
00000350: 6ad9 69ba 5159 77bd deed f0bc d28b babc
00000360: a898 d0bb 4494 033d 34bc af3d dcf6 9d3d
00000370: 4928 343b c73c 773d bcca 86bd 6a6b 2b3e
00000380: c322 603e 9c77 cfbd 1b8e eebc 4c4a b0bd
00000390: 7d9b 293b 4b8a 0fbd efea 05bd b4b4 33bc
000003a0: 0639 2abc c76a 663d e4ad 76bd d76e afbd
000003b0: 9b1d 43bd 7e82 743d 29ac c4bb 6fe6 df3c
000003c0: 9b2b 75bd 4727 a73d 188e dbbc b84b 8a3d
000003d0: 2572 b63c 93fa 88bd be41 813d d56f 61bd
000003e0: b2d1 1cbd 2473 c63c d44d cd3c 67f1 bcbb
000003f0: 5aaa 8d3c 76f6 3bbd f5d8 093e 82a0 ffbd

model.4.bias f4 [256]
0.06724945 0.018122759 -0.01312851 0.043842014 0.00025800857 0.07904396 -0.046790402 0.04427432
0.08359997 -0.022505872 0.046674933 0.07025996 0.047861125 -0.002569106 -0.009980716 -0.062224053
0.07709003 0.038288012 -0.009400207 0.06840252 0.058571108 0.025855836 0.04910624 0.19326212
0.07744876 -0.14658105 -0.056310024 0.19366688 -0.087150514 -0.06639379 0.061948445 -0.009559209
-0.012141236 0.026296223 -0.006932477 0.036129825 0.09275822 -0.07639404 -0.008978251 -0.07798713
-0.074802496 0.13203384 0.13960175 -0.030347034 -0.034149587 0.15480775 0.06305519 0.035416108
0.0034622494 -0.04951555 -0.09574056 0.0742087 0.0101363575 0.14173499 -0.09765042 -0.0034433925
-0.0050175297 -0.040366545 0.053066995 -0.07205572 0.16649747 -0.058111355 0.041931704 -0.042544834
-0.08755133 0.029997803 0.0915656 0.02973024 -0.052119307 -0.06474571 -0.07008672 0.10193088
0.058631178 0.010889165 0.1518653 -0.06433813 -0.052810296 -0.018209727 0.029961212 0.023514453
-0.0014003046 0.077996455 -0.00061923487 -0.00019283827 -0.010195971 -0.08021515 0.1978925 -0.071449116
-0.0776931 0.07608203 0.17109074 -0.019612364 0.053882774 -0.0715612 0.06882051 0.068865806
0.16150731 0.033711836 0.20471078 -0.01160105 0.016660266 -0.058975182 0.07587108 0.09260607
-0.060445007 0.0036761456 0.05434754 0.18040554 0.053863026 0.005097886 0.05223299 -0.060675383
0.0047385776 0.076094314 0.08370183 0.026991518 0.085807554 0.0009700167 -0.09506939 0.024225263
-0.03905066 -0.0115991635 -0.035571985 -0.03812315 0.027941808 -0.058864377 -0.048589252 -0.020822618
0.024621278 0.15014978 0.18578741 0.21699192 -0.0384088 -0.09229489 0.19542754 -0.03616903
0.015580796 0.07541856 -0.032265395 0.059462238 -0.005385146 -0.041162424 0.01593194 -0.02280533
0.06947765 0.1997328 0.020182546 0.08426776 -0.066235624 0.066560976 0.051551897 0.0063384725
-0.008007916 0.02370547 -0.0638813 0.030862885 -0.03709881 0.018276371 0.01172066 -0.01679678
0.024893345 0.18760306 -0.027736012 0.013623536 -0.1029935 0.1920662 -0.06381267 -0.03910152
0.0022874216 -0.024927685 0.059969764 -0.043221943 0.04306326 0.056639917 0.03859882 0.011186924
0.03732189 -0.007476591 0.13268659 -0.14504538 -0.05371452 -0.03383368 0.038007855 0.07007357
0.155706 0.008965751 0.062251333 -0.118202195 -0.011560067 -0.047065858 0.034697447 0.07554564
0.16777316 0.062390726 -0.025989806 0.117321864 0.055521756 -0.00759761 0.06087277 -0.06218469
-0.010585492 -0.088892415 0.035361335 0.023695404 0.097543776 0.08929357 -0.05632379 0.015500266
0.2021596 0.053755086 0.006394167 0.026956538 -0.026858542 -0.03609319 -0.0034087575 0.15050119
0.13847063 0.014775055 0.062739536 0.19676314 -0.10762664 0.009401415 0.042031433 0.15519904
-0.06107533 0.029677218 0.045975447 0.11845692 -0.008559684 0.024122756 0.073546335 0.024339305
-0.045402244 -0.015577035 0.13726711 0.16163436 0.022200663 -0.097120084 -0.0028068586 -0.0042019035
0.19433096 -0.07455197 -0.026645854 0.08740696 -0.029573984 -0.045786824 -0.061827555 -0.10541551
-0.044142697 0.10470994 -0.026664166 0.20137241 0.014793239 0.08577991 0.06994679 -0.049324997
00000000: 14ba 893d 2e76 943c f618 57bc af93 333d
00000010: 5345 8739 cde1 a13d 4ba7 3fbd fd58 353d
00000020: 7636 ab3d 3c5e b8bc 372e 3f3d 74e4 8f3d
00000030: 070a 443d 725e 28bb 2886 23bc a6de 7ebd
00000040: 61e1 9d3d e4d3 1c3d 5303 1abc 9f16 8c3d
00000050: 42e8 6f3d 9ecf d33c a023 493d 81e6 453e
00000060: 759d 9e3d 5819 16be 57a5 66bd 9c50 463e
00000070: f87b b2bd 78f9 87bd a7bd 7d3d 3b9e 1cbc
00000080: 09ec 46bc 2d6b d73c d529 e3bb defc 133d
00000090: 06f8 bd3d 7a74 9cbd 8419 13bc b7b7 9fbd
000000a0: 0d32 99bd e133 073e c3f3 0e3e 589a f8bc
000000b0: 70e0 0bbd ec85 1e3e 1423 813d 7b10 113d
000000c0: e8e6 623b d1d0 4abd a013 c4bd bbfa 973d
000000d0: f712 263c fa22 113e f2fc c7bd 8aaa 61bb
000000e0: 176a a4bb 6457 25bd c75c 593d f391 93bd
000000f0: 507e 2a3e 2c06 6ebd 94c0 2b3d 7e43 2ebd
00000100: 1d4e b3bd f4bd f53c bf86 bb3d d58c f33c
00000110: 0e7b 55bd 6699 84bd a089 8fbd 23c1 d03d
00000120: 3f27 703d 7868 323c 9482 1b3e b6c3 83bd
00000130: 9c4f 58bd 912c 95bc 3771 f53c 62a1 c03c
00000140: 6d8a b7ba 9bbc 9f3d 2654 22ba a134 4ab9
00000150: 000d 27bc d747 a4bd 55a4 4a3e ea53 92bd
00000160: 8f1d 9fbd e5d0 9b3d 6932 2f3e 1caa a0bc
00000170: 2fb4 5c3d ae8e 92bd c4f1 8c3d 8409 8d3d
00000180: 2c62 253e 6c15 0a3d b49f 513e 5512 3ebc
00000190: 1c7b 883c f68f 71bd 4c62 9b3d 40a8 bd3d
000001a0: 2f95 77bd 7deb 703b 879b 5e3d 3bbc 383e
000001b0: 7a9f 5c3d 2b0c a73b 42f2 553d c086 78bd
000001c0: 1246 9b3b 56d7 9b3d dd6b ab3d 511d dd3c
000001d0: dfbb af3d b848 7e3a beb3 c2bd 0f74 c63c
000001e0: 96f3 1fbd 6b0a 3ebc eeb3 11bd 0527 1cbd
000001f0: 38e6 e43c c61b 71bd 8605 47bd 3294 aabc
00000200: 90b2 c93c ddc0 193e 0e3f 3e3e 2133 5e3e
00000210: 8c52 1dbd 1a05 bdbd 281e 483e fa25 14bd
00000220: 9846 7f3c 0c75 9a3d b828 04bd ad8e 733d
00000230: e175 b0bb ee99 28bd b383 823c 3ed2 babc
00000240: 4c4a 8e3d c186 4c3e de55 a53c 9394 ac3d
00000250: 8ba6 87bd 1f51 883d 1528 533d f6b2 cf3b
00000260: a233 03bc f931 c23c 33d4 82bd 29d4 fc3c
00000270: ecf4 17bd 54b8 953c 0308 403c 6799 89bc
00000280: 21ed cb3c 041b 403e a236 e3bc 4035 5f3c
00000290: 42ee d2bd 00ad 443e 38b0 82bd ea28 20bd
000002a0: 91e8 153b 2535 ccbc dba2 753d 7e09 31bd
000002b0: 1a63 303d 42ff 673d cc19 1e3d 5c49 373c
000002c0: d7de 183d 31fe f4bb fede 073e c786 14be
000002d0: c203 5cbd 2f95 0abd 20ae 1b3d bb82 8f3d
000002e0: 6571 1f3e 16e5 123c 41fb 7e3d fe13 f2bd
000002f0: 6f66 3dbc 21c8 40bd e91e 0e3d acb7 9a3d
00000300: bacc 2b3e 6b8d 7f3d 93e8 d4bc 7246 f03d
00000310: c86a 633d 5ff5 f8bb ba55 793d 60b5 7ebd
00000320: c56e 2dbc 3a0d b6bd 0cd7 103d dd1c c23c
00000330: 08c5 c73d 8cdf b63d c6b3 66bd d4f4 7d3c
00000340: ed02 4f3e 4b2e 5c3d 2986 d13b f5d3 dc3c
00000350: 7206 dcbc 74d6 13bd 7665 5fbb fc1c 1a3e
00000360: 3fcb 0d3e 1313 723c 967d 803d 477c 493e
00000370: 5b6b dcbd 6408 1a3c 2729 2c3d 7fec 1e3e
00000380: 202a 7abd a31d f33c c050 3c3d 8b99 f23d
00000390: eb3d 0cbc 169d c53c 769f 963d 3963 c73c
000003a0: b4f7 39bd d236 7fbc c08f 0c3e 7a83 253e
000003b0: 2ade b53c e5e6 c6bd 46f3 37bb 1fb0 89bb
000003c0: b2fe 463e b4ae 98bd 6848 dabc 6c02 b33d
000003d0: 2445 f2bc f78a 3bbd e43e 7dbd 16e4 d7bd
000003e0: f9ce 34bd 2a72 d63d cf6e dabc 9234 4e3e
000003f0: 575f 723c 61ad af3d 4340 8f3d 0209 4abd

model.6.weight f4 [4, 256]
0.05641465 -0.034487616 0.105611786 0.06984138 -0.1651572 0.022407543 -0.045352172 0.06379781
0.08467834 0.15888804 0.01558237 0.03247225 0.059638727 0.07348785 0.09368828 0.05604703
0.021654848 0.066534854 0.002532967 0.049897324 0.020781625 0.072146654 0.021697802 0.07032333
0.15743297 -0.067099735 -0.052295722 0.08955304 -0.0742588 -0.097056754 0.06748895 0.04178895
0.098268285 -0.08991357 -0.024882307 -0.008995288 0.13630539 -0.03180472 -0.05038956 -0.1559508
-0.11815082 0.15405601 0.08698954 -0.010561891 -0.011929848 0.0312786 0.25879574 0.058682192
0.18892466 0.009504578 -0.0063238856 0.13792536 0.114397064 0.017646365 -0.043612454 0.14327288
-0.015022444 0.0027627603 0.056379795 -0.098080315 0.057956986 -0.07208089 0.07613228 0.023853365
-0.08717881 0.03161711 0.15402006 0.03996861 0.1286306 -0.05061977 -0.07768634 0.09205152
0.07296465 -0.0030666112 0.053714916 0.07027456 0.11029636 -0.0478428 0.023625005 0.08805149
-0.004792912 0.12306701 -0.05210684 0.0755914 0.05141427 -0.05287285 0.040023174 0.033872817
-0.07087319 0.011003404 0.056076262 -0.01624201 0.11661885 -0.06902051 0.09738083 0.034119606
0.07721767 -0.05474004 0.05851819 -0.15566193 -0.03734928 0.0009552696 0.008054571 0.06621163
-0.08384819 0.016111925 0.11286801 0.061060354 -0.029256744 -0.044587906 -0.0865995 -0.029206702
0.07969171 0.119101994 0.027373426 0.073142506 0.10533654 0.05503953 -0.08714148 0.1633283
0.07838665 0.10779125 -0.04413424 -0.07687384 0.06478653 0.010177841 -0.025010172 -0.09583752
0.013090791 0.0482164 0.044214766 0.070948884 -0.10826722 -0.07175687 0.020841945 -0.07082838
0.030335005 -0.004161194 0.00013050354 0.0331514 0.16040064 -0.054893106 0.10019898 -0.11007358
0.08059309 0.077120535 -0.12198437 0.07306259 -0.01798991 0.048606884 -0.03856738 -0.108684614
0.059860997 0.0435782 -0.14274675 0.041876208 0.0059237177 0.052521147 -0.055270888 -0.042807277
0.033160985 0.1021911 0.054648295 0.07040834 -0.027227258 0.10347698 0.0056149405 0.1403673
-0.039799567 0.14873637 0.07197845 0.016094362 -0.04797612 0.10797691 -0.0452698 0.021435903
0.08300359 -0.052123703 0.06442773 -0.092757866 -0.014010051 -0.030020986 -0.05892673 0.08494251
0.09364286 0.048473105 0.09994474 -0.07199793 0.08146721 -0.052404854 0.055385865 0.1373049
0.088024415 0.08450845 -0.16144225 0.08988532 0.16433063 -0.02264853 0.0379244 -0.088008024
0.09578107 -0.1141052 -0.010098127 0.020372724 0.010008332 0.09679191 -0.06797077 0.03114679
0.09243635 -0.17026348 -0.05732883 -0.032366905 -0.0004434065 -0.12618086 0.23227124 0.033729482
0.03294488 -0.060895305 0.09756155 0.08489197 -0.0622843 0.13202876 -0.003236848 0.029610764
-0.041782193 -0.06456726 0.038531143 0.031585258 -0.03097163 -0.016237013 0.07524289 -0.16844569
-0.04504094 0.011343092 0.02868879 0.08181883 0.1406101 -0.07095852 -0.033639453 -0.062358797
0.07908634 0.053908795 0.037186466 0.089060955 -0.010969635 -0.01419247 -0.05300483 -0.057786748
-0.021403529 0.0049280254 0.01673519 0.071401566 0.08457943 0.06386347 0.094751395 -0.0589455
00000000: 0c13 673d e342 0dbd fe4a d83d ff08 8f3d
00000010: f81e 29be 0690 b73c 33c3 39bd 6da8 823d
00000020: d66b ad3d 8cb3 223e 324d 7f3c 9f01 053d
00000030: bd47 743d cc80 963d a4df bf3d 9291 653d
00000040: 8265 b13c 6d43 883d 2200 263b 2361 4c3d
00000050: 3a3e aa3c a0c1 933d 97bf b13c ae05 903d
00000060: 1c36 213e 966b 89bd 0a34 56bd 9667 b73d
00000070: ff14 98bd b1c5 c6bd a637 8a3d e42a 2b3d
00000080: e240 c93d 9b24 b8bd fbd5 cbbc f960 13bc
00000090: a493 0b3e ab45 02bd 4965 4ebd 91b1 1fbe
000000a0: 0ff9 f1bd dcc0 1d3e 9227 b23d c80b 2dbc
000000b0: 6975 43bc fd1d 003d e080 843e bd5c 703d
000000c0: 7775 413e 17b9 1b3c 9938 cfbb 4e3c 0d3e
000000d0: 0249 ea3d 1c8f 903c f9a2 32bd 20b6 123e
000000e0: b220 76bc 6d0f 353b 80ee 663d 55de c8bd
000000f0: 4e64 6d3d 259f 93bd 3eeb 9b3d 2268 c33c
00000100: ce8a b2bd f180 013d 6fb7 1d3e 20b6 233d
00000110: bdb7 033e ad56 4fbd 041a 9fbd 8285 bc3d
00000120: 7e6e 953d 33f9 48bb 2c04 5c3d 1cec 8f3d
00000130: 0fe3 e13d d0f6 43bd 3a89 c13c 5754 b43d
00000140: dc0d 9dbb 8e0a fc3d fb6d 55bd aacf 9a3d
00000150: c597 523d 3491 58bd 57ef 233d 39be 0a3d
00000160: f725 91bd 9f47 343c 39b0 653d f70d 85bc
00000170: ddd5 ee3d a05a 8dbd 9a6f c73d 00c1 0b3d
00000180: 4c24 9e3d 1837 60bd c5b0 6f3d d765 1fbe
00000190: 8ffb 18bd 0f6b 7a3a 52f7 033c f799 873d
000001a0: 9ab8 abbd 28fd 833c 5827 e73d 6c1a 7a3d
000001b0: d7ab efbc cfa1 36bd 145b b1bd e542 efbc
000001c0: 6835 a33d bfeb f33d 3c3e e03c bdcb 953d
000001d0: afba d73d 2171 613d 3b77 b2bd 893f 273e
000001e0: 2e89 a03d a9c1 dc3d 1bc6 34bd 0870 9dbd
000001f0: cdae 843d f6c0 263c 22e2 ccbc 7646 c4bd
00000200: c27a 563c 8f7e 453d 8b1a 353d a64d 913d
00000210: 34bb ddbd 44f5 92bd babc aa3c 780e 91bd
00000220: 1e81 f83c a05a 88bb c7d7 0839 c3c9 073d
00000230: 1140 243e 98d7 60bd 1f35 cd3d 426e e1bd
00000240: fd0d a53d 5ff1 9d3d f1d2 f9bd d7a1 953d
00000250: 935f 93bc 0318 473d d4f8 1dbd 0a96 debd
00000260: ce30 753d 0e7f 323d 342c 12be 6386 2b3d
00000270: bf1b c23b 6a20 573d ba63 62bd af56 2fbd
00000280: d0d3 073d 9149 d13d e4d6 5f3d 3f32 903d
00000290: b30b dfbc bdeb d33d 89fd b73b 72bc 0f3e
000002a0: df04 23bd 594e 183e 7069 933d 53d8 833c
000002b0: 9c82 44bd 0023 dd3d d36c 39bd 599a af3c
000002c0: c9fd a93d aa7f 55bd b0f2 833d d6f7 bdbd
000002d0: 6a8a 65bc 92ee f5bc 285d 71bd 57f6 ad3d
000002e0: d4c7 bf3d bc8b 463d d4af cc3d a773 93bd
000002f0: 48d8 a63d 79a6 56bd 4adc 623d a899 0c3e
00000300: 2546 b43d c412 ad3d 1e51 25be cb15 b83d
00000310: 4a46 283e 6989 b9bc 9e56 1b3d 8d3d b4bd
00000320: de28 c43d fdaf e9bd 9d72 25bc b3e4 a63c
00000330: fdf9 233c d63a c63d 4234 8bbd 8e27 ff3c
00000340: 454f bd3d 8d59 2ebe a3d1 6abd 2993 04bd
00000350: 0379 e8b9 8e35 01be 83d8 6d3e ed27 0a3d
00000360: 36f1 063d 5b6d 79bd 5ace c73d d7db ad3d
00000370: d21d 7fbd 8c32 073e 4c21 54bb 4692 f23c
00000380: ce23 2bbd d73b 84bd d5d2 1d3d 8b5f 013d
00000390: 37b8 fdbc 7c03 85bc f218 9a3d 077d 2cbe
000003a0: d97c 38bd 60d8 393c c104 eb3c a190 a73d
000003b0: 18fc 0f3e b352 91bd 86c9 09bd f06b 7fbd
000003c0: 05f8 a13d 78cf 5c3d d650 183d 9765 b63d
000003d0: fcb9 33bc 8987 68bc 981b 59bd ccb1 6cbd
000003e0: 7456 afbc 467b a13b 3d18 893c fc3a 923d
000003f0: fb37 ad3d daca 823d 050d c23d d670 71bd

model.6.bias f4 [4]
0.08653537 0.067365535 0.13976383 0.028988015
00000000: 7539 b13d f1f6 893d 401e 0f3e 4678 ed3c
