project-3-tennis/checkpoint.pth (torch_old, 345843 bytes, 10 tensors)

std f4 [1, 2]
000000 15 b4 1b bf 24 7e d1 be
       -0.6082166 -0.4091655

base.0.0.weight f4 [200, 24]
000000 67 8a 8d 3d a2 5a 92 3c f4 4c 48 be 49 91 6e bd
       0.06911164 0.017865483 -0.19560605 -0.058244023
000010 69 39 96 3c 63 a5 78 3d c6 76 2f 3e 3e 54 23 3e
       0.018337922 0.0607046 0.17135152 0.15950105
000020 f9 e8 1c 3e bd b4 34 3d bc 5b b4 bd 80 e9 ac bd
       0.15323247 0.044117678 -0.088065594 -0.08442974
000030 4c e1 86 3e fd 4b d1 39 6e 6c 2e 3e 58 56 56 be
       0.26343763 0.00039920202 0.1703355 -0.20931375
000040 fa 64 74 3c 36 6c 63 be 96 43 39 be d1 40 3f be
       0.014916653 -0.22209248 -0.18092188 -0.18677069
000050 e0 83 ef 3d 9e c9 6d bd ad 89 d9 bd 6f ec 6a be
       0.11695075 -0.058053605 -0.10621963 -0.22941755
000060 ae 5e 09 be 92 5e f8 3d 95 77 2f 3e 21 b0 70 be
       -0.13415024 0.12127413 0.1713546 -0.23504688
000070 04 8c 7c be 5c cc bc bd 45 81 d9 3c 27 6c b8 bd
       -0.24662787 -0.09218666 0.026550898 -0.090050034
000080 67 e3 ac 3d e6 99 37 3e 2c 76 18 3e c7 c6 0d 3e
       0.08441811 0.17929801 0.14888829 0.13845359
000090 4b bd d4 bc 22 4f 68 bd d6 87 32 be 66 04 ec bd
       -0.025969168 -0.056716092 -0.1743463 -0.115242764
0000a0 5f 1c 8e bd 16 66 db bd fd 25 19 3e 82 c2 64 be
       -0.06939005 -0.10712831 0.14955898 -0.22339824
0000b0 02 cd 63 3e a2 91 5d be ed ae 39 3e 2b 23 86 be
       0.22246173 -0.21637586 0.18133135 -0.26198706
0000c0 c2 0f ca 3d ef 09 77 3d a7 28 24 3e cf 10 2f 3a
       0.09866287 0.060312208 0.16031133 0.0006678225
0000d0 23 b1 4f be 72 a5 be 3d ff a1 d4 bd ca e9 a5 3d
       -0.20282416 0.093089 -0.10382461 0.08101232
0000e0 68 be 1b 3e 1d 9b 6a 3d 65 2e 12 3e 8d fe 20 bd
       0.15209353 0.057276834 0.1427551 -0.03930526
0000f0 d5 e1 81 3d 20 be c9 3d 31 3c ef bc e1 50 57 be
       0.06341902 0.098507166 -0.029203506 -0.21026947
000100 39 25 0d be 8d 3f fd bd d8 fc d5 3d 6a b7 31 3e
       -0.1378373 -0.12365637 0.10448617 0.17355123
000110 9e 01 04 be 9f ca c3 3d d8 fc be 3d e1 3c 07 bd
       -0.12891242 0.09560131 0.0932557 -0.033017043
000120 b8 7c 4d bd 07 24 ba bd dc 93 dc 3d 62 57 de bd
       -0.05016777 -0.09088903 0.107703894 -0.10856511
000130 c3 02 59 be 17 86 93 bc 9d a8 46 3e d5 c5 66 3e
       -0.2119246 -0.018008275 0.19400258 0.22536404
000140 15 5a a1 bc 15 b6 f4 bc 7d 94 35 3e f7 c4 32 3e
       -0.019696275 -0.02987198 0.17732425 0.17457949
000150 ab 19 06 3e 25 7b 1b be 99 fb 4a be f7 29 c9 3d
       0.13095729 -0.15183695 -0.1982254 0.09822457
000160 c8 9b d4 3d 86 e8 0a 3e 90 bb 2a be 8f d1 73 3b
       0.103812754 0.13565263 -0.16673112 0.0037203764
000170 00 70 79 be a1 55 24 3e 3a e6 fc bd d6 73 13 3d
       -0.24359131 0.1604829 -0.123486 0.03599914
000180 e8 e9 99 3c 34 99 8b 3e 5e 75 6d be 78 a6 18 3e
       0.018788293 0.27265322 -0.23189303 0.14907253
000190 59 6d 86 bc 07 d7 46 3e 80 b5 b8 3c 94 d6 2d be
       -0.016409563 0.19417964 0.022547483 -0.16976386
0001a0 be a3 02 bd 68 0b f9 3d 77 b9 59 3d f0 0c 4a be
       -0.031894438 0.12160379 0.05315539 -0.19731498
0001b0 a0 33 1a be b6 61 2d 3e 8f a7 18 3d cc 2e 3a be
       -0.15058756 0.16931805 0.03726917 -0.18181914
0001c0 e3 db 89 bc f6 c5 ce bb 32 50 8f 3c 8c d7 23 be
       -0.016828483 -0.00631022 0.017494295 -0.16000193
0001d0 73 9c 15 3d cb 65 92 3d d1 e6 14 3e 4c e0 4a be
       0.036526155 0.07148322 0.14541174 -0.19812125
0001e0 7b e9 6c bd 2b bc 3b 3e 83 e3 01 be a0 68 02 3d
       -0.05783985 0.18333499 -0.12684445 0.03183806
0001f0 e1 5a 59 3d 4c f8 f8 bd 97 dc 0d be 09 6b 33 3e
       0.053065185 -0.12156734 -0.1385368 0.175213
000200 11 1b cd bc 34 d9 75 3d e6 17 b1 bd 52 8b 82 3c
       -0.02503732 0.060021594 -0.086471364 0.015935574
000210 c8 25 c1 bc a2 38 d5 3d 96 56 a4 bc fb f1 3c 3e
       -0.023577586 0.104111925 -0.020060819 0.18451683
000220 74 36 2f 3e 0d 67 24 3e bd 72 20 be 85 cc 56 3e
       0.17110616 0.16054936 -0.15668769 0.20976456
000230 02 ad 1a 3c 1b 1c 0a 3e e2 e9 13 3d 0d 36 5e 3e
       0.009440662 0.13487284 0.03611172 0.21700306
000240 77 05 0f 3d 2d 47 82 be f5 e6 39 bc 1b 98 e2 bd
       0.03491732 -0.25444928 -0.011346568 -0.11064168
000250 b9 d8 04 3d 3d 54 52 3d 82 31 10 3e 59 48 41 be
       0.032433245 0.051349867 0.14081386 -0.18875255
000260 7d 44 75 3e ea 25 ea 3d cb 43 59 3d bf 1c 22 be
       0.23951907 0.11433013 0.053043168 -0.15831278
000270 e0 f5 62 be 55 07 d4 3c 93 f2 eb bd e5 da 16 3e
       -0.22164106 0.025882402 -0.11520877 0.14731939
000280 32 69 42 3d 09 03 92 bd d3 c4 0e 3e ed 38 3d 3d
       0.047463603 -0.07129485 0.1394227 0.046196867
000290 b0 c1 ad 3b e6 bf dd bd 73 5f c9 bd 71 df 43 3e
       0.0053026304 -0.10827617 -0.098326586 0.19128205
0002a0 be 55 42 3e 76 51 9c bd 10 a4 39 3d db d7 10 3e
       0.1897802 -0.07632725 0.045322478 0.14144842
0002b0 a5 3d 4e 3e 2c d5 83 bc 44 c9 22 3e 8f 7e 1b 3e
       0.20140703 -0.01609286 0.15897089 0.15184997
0002c0 ba 8d 4a be 48 fd c5 3d 0c 2e ba bd 4a 00 3e be
       -0.19780627 0.0966745 -0.09090814 -0.18554798
0002d0 c6 fd ea 3c 55 66 16 3d 92 6a ba bc ff 80 a3 bd
       0.028685462 0.036718685 -0.022755895 -0.079835884
0002e0 4e b1 3d 3e 1f 84 f0 bd b2 b3 9b bd ec 31 77 be
       0.18524668 -0.1174395 -0.076026335 -0.24140137
0002f0 3b 91 cc 3c 7d fd 2a bd ae a7 11 be dc fb 64 be
       0.024971595 -0.04174565 -0.14224121 -0.22361702
000300 18 17 8e 3d 12 be 5d 3e e7 6d fe 3d 44 f2 a1 3d
       0.069379985 0.21654537 0.12423306 0.079075366
000310 dd 05 fa 3d 21 63 d2 3d 11 01 27 3e fb 64 09 3d
       0.122081496 0.102728136 0.16309 0.033543568
000320 7b ee 2e 3d 01 bc 95 bd 0c e0 d7 bd 68 44 2b bd
       0.0427079 -0.073112495 -0.105407804 -0.041813284
000330 c2 d0 28 3e 63 d5 c8 3c 4e 8e 2a 3e f4 ae 45 3d
       0.16485885 0.024515813 0.16655847 0.04826255
000340 b6 e8 e5 bd f5 b9 08 be f7 97 84 3d 58 dc 3a bc
       -0.11226027 -0.13352187 0.064742975 -0.011405073
000350 d8 34 88 3e c6 8d 7b be 15 89 a7 bc 22 55 69 bd
       0.26602817 -0.24565801 -0.020451108 -0.056965955
000360 9f 0a 6c 3d 05 b9 f3 bd e2 07 ce 3d 8b ad fa 3d
       0.057627317 -0.11900524 0.10060097 0.12240132
000370 54 91 35 3e eb fb b5 bd ff d2 18 be a9 0a 25 3c
       0.1773122 -0.0888594 -0.14924239 0.010073342
000380 46 76 98 bc 37 5b 71 3d d3 8d 10 bd 45 73 29 bc
       -0.018611085 0.05892488 -0.035291504 -0.010342424
000390 37 61 0e 3e fb 6e 61 be 2f fb bb 3d 8b e0 ab 3d
       0.13904272 -0.22014992 0.09178769 0.083924375
0003a0 d1 38 40 be 38 50 d4 bd 06 66 90 3d 93 76 c8 bd
       -0.18771674 -0.10366863 0.070507094 -0.09788241
0003b0 87 08 24 be dc e4 6a be 8a 4d 6f bc 0c 9d 43 3e
       -0.16018878 -0.22938865 -0.014605889 0.19102877
0003c0 40 49 34 be 94 50 d3 3d ad a2 53 3d 8d 90 24 3e
       -0.17606068 0.103181034 0.05166881 0.16070767
0003d0 4d 48 7f be b5 f1 df bd d3 fc 3c bd 9b c4 45 be
       -0.24929924 -0.10934774 -0.04613955 -0.1931328
0003e0 92 bd e4 3d 41 7c 39 be 4c b6 7b bd 24 50 78 3d
       0.1116897 -0.18113805 -0.06145315 0.060623303
0003f0 ed d6 ef bd 00 c8 aa 3d b0 31 d2 3d d6 e3 4f 3e
       -0.11710916 0.08338928 0.102633834 0.20301756

base.0.0.bias f4 [200]
000000 61 8f c4 bd 38 81 b2 bd 34 d8 d0 3d e8 b9 de bd
       -0.0959766 -0.08716053 0.101974875 -0.108753026
000010 a0 c0 b7 3d bf 56 d8 3d 27 ca fa 3a 0b 32 15 3e
       0.08972287 0.105634205 0.0019133732 0.14569871
000020 69 ed 39 bd 98 68 da bc ac 64 31 3e 0f db 93 3d
       -0.045392428 -0.026661202 0.1732356 0.072195165
000030 14 20 39 3e 8c ab 17 3e ac 68 f2 bd 86 34 d5 3d
       0.18078643 0.14811534 -0.11836371 0.10410409
000040 cc f4 84 bd 03 48 a5 bd 2f c8 a4 bd 0b 8a 03 3d
       -0.06492004 -0.08070376 -0.080459945 0.03211407
000050 ac 79 03 be 2b 6a a6 bd cf 36 19 bd 33 75 21 3d
       -0.12839383 -0.08125719 -0.037405785 0.03941841
000060 4b 90 ee 3c 5e 4d c1 bd 48 8f e1 bd 17 06 4a 3e
       0.029121539 -0.09438585 -0.11013657 0.19728886
000070 c4 31 e6 bd 7a 36 19 be 64 d4 44 3e b9 a4 af 3d
       -0.11239961 -0.14962187 0.19221646 0.0857634
000080 28 12 10 be f4 61 cd bd 66 0a 9e bd 11 0e 20 3d
       -0.14069426 -0.10028449 -0.07716827 0.039075915
000090 1a 61 09 be fa c0 e5 bd 3e 25 3e bd c8 c2 14 3e
       -0.13415948 -0.11218448 -0.046422236 0.14527428
0000a0 9d 59 2d 3d 78 df cc 3d 58 89 c8 bd 1d a0 60 3c
       0.04232179 0.10003561 -0.09791821 0.013710049
0000b0 f5 6f 38 bd 45 c0 0b be f1 be 22 3d 78 c8 ee 3c
       -0.045028646 -0.13647564 0.039732877 0.029148325
0000c0 0e d1 19 be c4 ca a8 3d 4a 70 7b bd b7 5f 95 bd
       -0.15021154 0.082417995 -0.061386384 -0.07293647
0000d0 a4 45 35 bd 8f 2c 19 bd 9a ec 46 be 0b 00 3d be
       -0.044255868 -0.03739601 -0.19426194 -0.18457048
0000e0 fb b6 4f 3e 25 06 41 be 09 4b 3a be e8 40 cd bd
       0.20284645 -0.1885 -0.18192686 -0.100221455
0000f0 5b b5 10 be bc 69 53 3d a3 9f a2 bb 2f 5b a8 3d
       -0.14131682 0.051614508 -0.004962878 0.08220517
000100 d0 7e 4f be b9 f1 1a be 52 08 ba 3d f7 b8 80 bd
       -0.20263219 -0.15131272 0.09083618 -0.06285279
000110 67 6e 54 3e 60 1d fc 3d 7f ad 9b 3d cb 02 4a 3d
       0.2074524 0.1231029 0.07601451 0.04931907
000120 10 56 0b 3e 13 9a 8d 3d b0 0c 4a 3e 93 51 8a bb
       0.13607049 0.06914153 0.19731402 -0.00422115
000130 9e 0f 48 bd dc 19 42 3e 71 25 f7 bd c9 cf e4 bd
       -0.04884302 0.18955177 -0.12067688 -0.111724444
000140 b9 8b 63 3d bb ac db 3c dd 86 41 3e b9 61 d8 bd
       0.05555317 0.026815763 0.18899103 -0.10565514
000150 49 02 b6 bd d2 51 43 bd a8 25 25 be 60 be 99 3d
       -0.088871546 -0.04768545 -0.16127646 0.07507014
000160 09 16 70 bd 82 8f 8d bd 74 87 79 be eb f2 1e be
       -0.058614764 -0.069121376 -0.24368078 -0.15522353
000170 8c 29 0d be 79 57 eb bb 04 4c bd bd 5b 5f eb bd
       -0.1378538 -0.0071820584 -0.092430145 -0.11492797
000180 ca 7e 1c be 37 01 ff 3d 72 5e cc 3d ac e4 87 3d
       -0.15282741 0.124514036 0.099789515 0.066354126
000190 a9 d6 5a be 78 5c dd 3d 27 6c 86 3c 4f 14 35 3e
       -0.21370949 0.10808653 0.016408993 0.17683528
0001a0 37 90 f8 bd 4e 75 31 3d bb ce 10 be 59 6e 06 3c
       -0.12136882 0.04332476 -0.14141361 0.00820502
0001b0 f1 2c 44 3e e1 a8 ec bd 1e 80 18 3e 27 81 fd 3d
       0.19157769 -0.115556486 0.14892623 0.123781495
0001c0 d6 30 25 3e 9d 93 49 3d 62 c5 00 b8 7f a4 12 be
       0.1613191 0.04921304 -3.0701405e-05 -0.14320563
0001d0 97 bf 3c be d9 f6 52 be 5f 62 fa bc b4 94 3b 3e
       -0.1843246 -0.20601977 -0.030564485 0.18318444
0001e0 cf 01 af bd 6f d6 85 3d e3 de 51 bd fa df d0 bd
       -0.08545267 0.065350406 -0.051237952 -0.1019897
0001f0 7d 37 97 bd 15 72 d1 bc 00 2f cd 3d 10 94 e1 bd
       -0.073836304 -0.025567094 0.1001873 -0.11014569
000200 9d ea 03 3e 7f 8d 8b 3d f6 60 e9 bd 87 5e 2f 3e
       0.12882467 0.068140976 -0.11395447 0.17125903
000210 0d 4f 31 3e 54 a2 20 be 86 70 9c 3c 84 40 31 be
       0.17315312 -0.15686923 0.019096624 -0.17309767
000220 0c d0 05 3d 5b 93 18 3e 72 f7 7f 3d b8 a2 e0 3a
       0.032669112 0.14899962 0.06249184 0.0017138338
000230 39 43 74 bd 34 5a 27 3e b2 eb 8a 3b 9d 5f 09 be
       -0.05963442 0.16343004 0.004239523 -0.1341538
000240 9b f6 6e bd 8d 44 cc bc 88 fe eb bd 01 b2 8c 3d
       -0.05834065 -0.024935031 -0.11523157 0.06869889
000250 ed f1 21 3e a6 02 49 be c3 d4 04 be 4e 09 d1 3d
       0.15814944 -0.19629917 -0.12971787 0.10206853
000260 e1 7f aa 3d 97 74 af bd 19 1b 81 3d 13 cc 72 3d
       0.08325172 -0.085671596 0.063039966 0.05927665
000270 af 25 81 3d 31 a3 b9 3d 7d 8c 1e bc a3 d7 c4 bd
       0.06306016 0.090643294 -0.00967705 -0.09611442
000280 fb a9 31 3e df 5e 00 be f6 a9 e9 3c 28 87 1b 3e
       0.17349999 -0.1253619 0.028523427 0.15188277
000290 25 43 0b 3d 43 03 30 be 7b b3 97 3d fd 39 b3 bd
       0.03399958 -0.17188744 0.0740728 -0.08751295
0002a0 f9 cc b7 3b 23 30 1d be 70 85 86 3d 04 13 01 3d
       0.0056091514 -0.15350394 0.0656842 0.031512275
0002b0 92 a3 1e bd 9f 35 f3 3d c4 42 4f 3d c2 a7 00 be
       -0.03873021 0.11875462 0.050600782 -0.12563995
0002c0 c1 69 1e be c8 53 08 3e 6b 77 22 be b5 12 48 ba
       -0.1547003 0.1331321 -0.15865867 -0.0007632182
0002d0 b5 92 b0 3d 73 b1 81 3d a3 15 e2 bd ec 09 cc bd
       0.08621732 0.06332674 -0.11039283 -0.0996283
0002e0 a8 84 40 3d 2c 48 bf 3d 0b 62 2b 3e 49 1c 4f bc
       0.04700151 0.093399376 0.16736619 -0.012641021
0002f0 9d fd ce 3d ce d3 10 3e d7 8a 1c be 00 12 2a 3e
       0.10106967 0.14143297 -0.15287338 0.16608429
000300 16 e3 ca bd fa c8 8f 3d 50 26 61 3d 56 a2 e9 bd
       -0.099065945 0.07020755 0.05496818 -0.11407916
000310 b0 23 ae bb 57 6a ef bc ed 3e c1 3d 5a 91 ed 3d
       -0.005314313 -0.029225511 0.0943583 0.11599989

base.1.0.weight f4 [200, 200]
000000 1d 3f 15 bd e6 eb 73 3d af d0 81 3d 85 48 bd bd
       -0.036437143 0.059551142 0.06338631 -0.09242348
000010 a7 c4 4d bc 5c 09 a6 bd 7d 42 8c bd 6b 50 b5 3c
       -0.012559093 -0.08107254 -0.06848619 0.022133073
000020 52 5a 5d 3d 49 ef 39 bd 8e 42 dc bd a8 ea 25 3c
       0.054041214 -0.045394216 -0.10754882 0.010126747
000030 b2 1d b5 bc f1 59 40 bd c1 10 88 3b 3f 33 1d bc
       -0.022108886 -0.046960775 0.004152388 -0.009594738
000040 c4 45 3d 3d f3 f1 d2 bb ea ac ee 38 b7 c0 3a 3c
       0.04620911 -0.006437534 0.00011380932 0.011398486
000050 5f 44 7f 3d 5a 7b ad 3b 96 e2 65 bd a0 0d 67 bd
       0.062321063 0.0052942457 -0.056124292 -0.05640948
000060 5d 20 c9 3b 31 b0 22 bd 7a 89 75 3d 3b 5f 80 3d
       0.006137891 -0.03971881 0.05994556 0.06268164
000070 bb ac b2 bd 21 c3 1a bd 80 66 3a 3d 0c 70 58 bd
       -0.08724352 -0.037783746 0.045507908 -0.05284123
000080 6e cf b7 3c e2 e0 7e 3b 50 89 35 bc 90 77 1b 3d
       0.022437777 0.0038891365 -0.011080101 0.03795582
000090 3c 08 14 bd 9e 1a 55 3b b5 cb 9c bd cb 23 35 bd
       -0.036140665 0.0032517086 -0.076560415 -0.044223588
0000a0 cf 97 d0 bd 80 ee 97 bc 2a c8 c1 3c b9 5a 77 bd
       -0.10185205 -0.018546343 0.023655016 -0.060389254
0000b0 c0 09 46 3c 2f fb fe bc 37 71 aa bb 28 71 13 3d
       0.0120872855 -0.031125633 -0.0052014845 0.035996586
0000c0 0c 3f 6c 3d 07 16 8f 3d 39 63 39 bd 6c 78 a1 3b
       0.057677314 0.06986623 -0.04526064 0.0049276855
0000d0 da 17 f3 bd b0 6a d5 bd cc d8 b2 bd 9a b8 82 bd
       -0.11869784 -0.1042074 -0.08732757 -0.06382866
0000e0 2d 86 45 3d 51 0c fb bc b2 2d 0c bd 62 00 3a bd
       0.048223663 -0.030645521 -0.034223266 -0.04541052
0000f0 91 1f a9 3d b7 c0 44 3b d3 08 38 bd 8e 01 b3 bd
       0.08257974 0.0030022094 -0.04493029 -0.08740531
000100 34 26 a2 bd 66 8d 10 bd 9c b9 46 bd 7f e9 03 3d
       -0.07917443 -0.035291098 -0.048516855 0.0322051
000110 b8 fd 24 bd 87 a8 2b 3c 0b a3 d4 bc ef f9 cf bc
       -0.040281028 0.010477192 -0.025956651 -0.025387732
000120 ca ad d3 bd 12 eb 38 ba 45 3f b0 bd 29 85 70 3d
       -0.10335882 -0.0007054071 -0.08605818 0.05872074
000130 09 d7 5b bd 10 c5 6c bb 04 8f 88 bd e6 85 8b bc
       -0.05367187 -0.00361282 -0.06667903 -0.017031621
000140 bc ca 44 3b 9c 3b 8a bd bd 33 22 bd 12 10 69 bd
       0.0030028066 -0.06749651 -0.039600123 -0.05690009
000150 2d 71 f2 bd d5 af 59 bd ed e7 c4 3d ff 43 b5 bd
       -0.11837993 -0.053146202 0.09614549 -0.0885086
000160 93 25 21 3b c4 d8 48 3d d2 22 1c 3d 54 27 75 3d
       0.0024589046 0.04903485 0.038119145 0.05985196
000170 1d 29 2b bd d7 96 80 3d 71 4c 19 bd 44 94 a3 bc
       -0.041787256 0.062787704 -0.037426416 -0.01996816
000180 47 81 71 3d 4c 52 a5 3b 6c c8 8f bd 01 26 40 bd
       0.05896118 0.005045211 -0.07020649 -0.046911243
000190 ea 14 60 bd 56 bc e9 bc f6 51 b2 bd d4 65 c7 bc
       -0.054707445 -0.028532188 -0.08707039 -0.024340548
0001a0 f7 c6 ef bb 28 0f 51 bd 41 05 37 3d 79 9d c2 bc
       -0.0073174196 -0.051039845 0.044682745 -0.02375673
0001b0 ab fa e7 3b 14 13 8b bd 2d 18 f4 bd 95 8a 57 bc
       0.0070794425 -0.06790748 -0.11918674 -0.013155599
0001c0 0a 17 d0 bd ea 95 0d bd 47 f8 60 3d a3 cc 4c 3d
       -0.10160644 -0.034566797 0.054924276 0.049999844
0001d0 cd bc 94 3c 9b ff 01 bc 97 a2 19 3d 90 64 23 bd
       0.018156433 -0.007934476 0.037508573 -0.039890826
0001e0 64 ea a3 bc 59 e6 09 bc 14 ab 77 bd 65 6e 1b bc
       -0.020009227 -0.008416736 -0.060465887 -0.009486769
0001f0 52 a3 45 3d 78 b2 b6 ba dc bc 01 b9 cc 8e 8d bd
       0.048251458 -0.0013938686 -0.00012372754 -0.06912002
000200 8e 4c 10 3d 5f 81 9a bc d9 39 c2 bc 85 db 3f 3c
       0.03522926 -0.018860517 -0.023709225 0.011710052
000210 b0 1d e4 bd cc ae ff bc 9f bb 8d bd e6 dd 55 3d
       -0.11138475 -0.03121128 -0.069205515 0.052213572
000220 9a fc ca 3c 28 4d ef 3c 46 5c af 3c e2 3a 85 bc
       0.024778653 0.029211596 0.021406304 -0.01626343
000230 96 3f 4e bd ef 96 6b bc 1c f6 58 3a d0 8c b3 bd
       -0.05035361 -0.014379247 0.0008276419 -0.08767092
000240 f5 6a f5 bd 22 13 13 bd d1 c5 52 3d c7 78 b4 bd
       -0.11983291 -0.03590692 0.051458184 -0.08812099
000250 37 e2 89 3c 75 2f 6f 3d ee a9 f9 3b cd c8 d0 bc
       0.0168315 0.058394868 0.007619134 -0.025486374
000260 d4 bf 9d bc e4 d3 b6 3c 5e f4 60 bd d8 7c 9a 3d
       -0.01925651 0.022317834 -0.054920547 0.07543343
000270 a7 d7 8a 3c 93 15 d8 bc 70 ca a3 bc 4e cf 3d 3d
       0.016948534 -0.026377475 -0.01999399 0.04634028
000280 d5 53 5e 3c 3c 70 e7 3c e0 87 1b be 08 a2 56 bc
       0.013569792 0.02825176 -0.15188551 -0.013100155
000290 1f d5 79 bd c7 90 a0 3d 63 92 61 bd 0f 74 a9 bc
       -0.060994264 0.07840114 -0.055071246 -0.020685224
0002a0 32 60 44 3d 56 3b 23 bd 34 d2 eb bc cd c2 88 bb
       0.0479433 -0.03985151 -0.028786756 -0.0041736127
0002b0 ff ac ca bc 2c ff ff bd b2 81 fb bd f7 25 61 3c
       -0.024740694 -0.12499842 -0.12280597 0.013741962
0002c0 9e 54 33 3c 28 fc 1f bd 03 ea 91 bd bf a1 b6 bc
       0.010945467 -0.039058834 -0.07124712 -0.022293923
0002d0 fb 89 3f 3b 24 e4 37 bd f1 54 c8 3c 23 a0 17 3d
       0.002922653 -0.044895306 0.024454566 0.037017953
0002e0 af c7 9d 3d a8 17 ac bc 7b 8e 42 bd 64 57 89 bd
       0.07704102 -0.021007374 -0.04749916 -0.067061216
0002f0 b0 cc 85 3d 79 8a 0a 3c 16 94 df 3c 67 9e 7f 3d
       0.06533182 0.008455866 0.027292293 0.062406924
000300 04 11 60 3c b3 1e af bd 5e ea df 3b 54 40 b7 bc
       0.013675932 -0.08550777 0.0068333587 -0.022369541
000310 bc 0a 18 3d af 17 28 bd 09 2f b0 bd a9 ef f5 3b
       0.037119612 -0.04103821 -0.08602721 0.0075053764
000320 24 cd 43 3c 69 c0 96 bd 9e a0 67 3c 5b 3c de 3c
       0.011950765 -0.07360918 0.014137415 0.02712839
000330 0f cf 59 3d 21 34 a2 bd f1 34 1c 3d 53 21 a0 3d
       0.053175982 -0.07920099 0.038136426 0.07818856
000340 d7 e5 9b 3d e0 93 85 bd f3 33 c6 bc 55 07 ff bc
       0.07612198 -0.065223455 -0.024194693 -0.031131426
000350 0b 4d e9 3c 45 a6 ac bc d0 96 f2 bb e4 50 46 3c
       0.02847912 -0.021075377 -0.007403232 0.012104247
000360 ea d0 49 3d f5 3b 84 3d 9b fe ae 3d ad e2 a9 bd
       0.0492715 0.064567484 0.08544656 -0.08295188
000370 ce 33 60 bd 9e 35 b8 bc e8 b7 71 bd 00 99 78 bd
       -0.054736905 -0.022486504 -0.059013277 -0.060692787
000380 8b 4b 97 bd fa 84 17 bd e9 1b 1d bd 2e e9 89 3d
       -0.073874556 -0.03699205 -0.038356695 0.067339286
000390 0b 64 85 3d 0e 7f 10 3d 86 59 3f bc 2d 8a f9 bd
       0.06513222 0.03527742 -0.011679059 -0.12184558
0003a0 d7 3d 07 3d d8 0f b4 3b c3 ad 3e bd c5 04 7c 3c
       0.03301796 0.005495053 -0.04655243 0.0153819965
0003b0 d7 12 e9 3d 64 f3 8b bc e3 94 9f bd 66 06 bf bc
       0.113805465 -0.017083831 -0.0779207 -0.02331848
0003c0 04 62 a0 3a 59 62 dc 3c b0 a4 d2 3c 80 6f 5d 3c
       0.0012236242 0.026902365 0.025713295 0.013515353
0003d0 b2 33 c2 3c d6 b9 53 3d 44 4a 97 3d 40 7e 2e bd
       0.02370629 0.0516909 0.07387212 -0.04260087
0003e0 18 8d a3 bc 33 e2 3d 3d 1c c7 8e bd da 5a e5 3c
       -0.01996474 0.0463583 -0.06971571 0.027997423
0003f0 2d e6 04 bd 03 86 96 bc 2d 7a f0 bc d4 7a a0 3c
       -0.032446075 -0.018374449 -0.029355133 0.019589819

base.1.0.bias f4 [200]
000000 38 20 ed 3c a0 b8 27 3d 1c 31 80 3d 76 9e 7b 3d
       0.028946027 0.040947556 0.06259367 0.061430417
000010 f8 de be 3b 33 3e 40 3d dd 9a 81 3d 46 c4 be 3b
       0.00582492 0.046934318 0.06328366 0.0058217375
000020 5b 76 05 bd f2 bd e3 bb f3 a4 2b bd a4 1e 16 bd
       -0.032583576 -0.0069501335 -0.041905355 -0.036650315
000030 9f 2f 20 bd 43 06 5d 3c 13 66 1e 3d ed 62 63 bd
       -0.039107915 0.013490262 0.038671564 -0.055514265
000040 19 5a 89 bd 16 f2 05 3d 75 2e aa bd 9b 4a 93 bd
       -0.06706638 0.032701574 -0.08309642 -0.07191964
000050 62 4e 26 bd 77 95 a8 bb a8 aa 7b bc 95 ef 64 3d
       -0.040602095 -0.0051447707 -0.015360512 0.055892546
000060 b0 b0 97 3c 2b 6a 62 bd 4d ac 2a bd bb 41 ac bc
       0.018516868 -0.05527703 -0.041668225 -0.021027436
000070 e2 cb f8 bb 24 98 ad 3c 49 b3 8b bd 10 21 27 bc
       -0.007592664 0.02119071 -0.06821305 -0.010200754
000080 df 6c 37 3d 48 33 99 bc 68 a0 58 bd 03 b5 90 3d
       0.044781562 -0.01870121 -0.05288735 0.07065775
000090 c9 23 0f bc d6 c1 91 3d 40 80 e3 3c 49 62 d9 3b
       -0.008736559 0.071170494 0.027771115 0.006634031
0000a0 71 8b 8c 3b e5 b5 05 3d b0 71 2f bd fe b4 92 3c
       0.0042890836 0.03264417 -0.04283303 0.01790857
0000b0 cb 6f 56 3d 71 6e 63 bd aa a9 28 bd 36 d2 87 bd
       0.052352708 -0.055525247 -0.04117743 -0.066318914
0000c0 fa 85 23 bd 7e 86 68 3d 51 e6 9a bd c3 2d 9a bc
       -0.039922692 0.056768887 -0.075634606 -0.018820649
0000d0 37 a7 c0 3b 20 22 95 3c ee dc 23 3d 7c b7 0b bd
       0.0058793086 0.018204749 0.040005617 -0.03411053
0000e0 db 05 d1 bc fe 3e 60 3c f9 ff 9f bd 57 a8 4a 3d
       -0.025515487 0.0136868935 -0.07812495 0.049476948
0000f0 a8 8b 63 3d 2b a8 72 bd c7 39 dd bc af 22 2f bd
       0.05555311 -0.05924241 -0.02700509 -0.042757686
000100 ca 4a 61 bc 12 4b a1 3c 4c 0e f8 bc df dd a8 bc
       -0.013750741 0.019689117 -0.030280255 -0.020613609
000110 ce 29 1e ba 66 2a 89 3d 86 1e 26 bd d8 9f a4 3d
       -0.0006033451 0.0669754 -0.040556453 0.080383
000120 e9 90 e6 bc 15 e7 12 3d db 3e bd bd 88 6d d6 bc
       -0.02814527 0.03586491 -0.09240504 -0.026175275
000130 46 a9 8b 3c b6 07 0b 3b 5a db bf bc 2d 32 c7 b9
       0.01704849 0.0021214313 -0.023420025 -0.00037993622
000140 cf 2b 69 3d 32 79 2f 3d a5 22 36 3d 15 4e b3 3c
       0.056926545 0.04284019 0.044466633 0.021887818
000150 44 fc 74 3d bc 7a 20 3d 73 f0 83 3d 4b 6f 08 bd
       0.05981089 0.03917955 0.064423464 -0.033309262
000160 a9 b0 01 3d f9 e1 80 bc fb a8 2e bd 3f 78 3e bd
       0.031662617 -0.015732752 -0.04264162 -0.046501394
000170 69 0f 9e bc 64 b1 bb bc b1 81 bb 3c 34 25 bf bc
       -0.019294458 -0.022911735 0.02288899 -0.02333317
000180 8a 0c e5 3c 0c 1f 4d bd 59 b0 3a 3c 7b ca 04 bd
       0.02796008 -0.050078437 0.011394584 -0.032419663
000190 43 68 96 bd be 98 4d bd e6 c8 06 3d 54 a2 60 bd
       -0.07344105 -0.050194494 0.032906435 -0.05484231
0001a0 9e 0d a2 bb 72 58 f7 ba 17 10 83 3d 6a f3 17 bd
       -0.004945471 -0.0018870963 0.06399553 -0.037097372
0001b0 4b 8e 2b bd af 57 42 ba 08 82 28 3d 21 82 c3 bc
       -0.041883748 -0.00074135786 0.041139632 -0.023865761
0001c0 93 47 29 bd 33 16 60 3d f5 bc 7a 3c 5a 6d 9d 3d
       -0.041328024 0.05470867 0.01530384 0.07686873
0001d0 8c db 91 bc ea 11 30 3d 4e e8 88 bc c8 4d 21 3d
       -0.017804883 0.042985834 -0.016712334 0.03938082
0001e0 fa 0d 49 3a 0e 73 1e 3d f1 ff 90 bd 43 5d 4b bc
       0.0007669624 0.038683943 -0.07080067 -0.012412372
0001f0 09 24 c3 bb 62 7f 57 bd f7 9b 0a bd 83 a3 62 bc
       -0.0059552235 -0.052611716 -0.033840146 -0.01383293
000200 74 d9 1b bd 09 fe d3 bc 3b fa 1d 3d 50 69 82 3d
       -0.038049176 -0.02587797 0.038568716 0.06367743
000210 61 63 13 3d 43 7d 54 bd df 92 76 3c e5 e5 78 bd
       0.035983447 -0.05187727 0.015049665 -0.06076612
000220 b5 8c 3d 3d 6e ad 13 3d 86 e5 97 3d b7 90 02 3c
       0.046276767 0.036054067 0.07416825 0.007969073
000230 9b 37 b3 bc 97 27 5c bd f1 4f 87 bd 46 e4 6b 3d
       -0.0218771 -0.053748693 -0.066070445 0.057590745
000240 d8 b5 2d 3d 7d b5 b4 bc 31 b7 89 3d 74 b7 81 bd
       0.042409748 -0.022059197 0.06724394 -0.06333819
000250 c0 c9 a9 3b 8f 92 7b bc ac f4 62 bd 17 e1 a2 3d
       0.005181521 -0.0153547665 -0.05540912 0.07953089
000260 9c 30 f7 bb 17 a6 5b bd 5d 0c b1 bb 75 b5 ad bc
       -0.0075436365 -0.053625192 -0.005403085 -0.02120469
000270 bf 72 04 bd 57 2e 9e 3b 8e 4a 82 bd bc 60 1f 3d
       -0.032335993 0.0048273015 -0.063618764 0.038910612
000280 17 30 6b bd 7c f9 a5 bd 4c b4 0f bd 1d 5c 0f bc
       -0.05741891 -0.08104226 -0.035084054 -0.008749989
000290 44 28 59 3d 1b 35 96 bd 60 30 57 bd 39 3d 95 bc
       0.053016916 -0.07334348 -0.05253637 -0.01821767
0002a0 61 fd 20 3b 7a 40 41 bd 12 3a ab bd 3c 5d a9 bd
       0.0024565088 -0.04718063 -0.083606854 -0.08269736
0002b0 99 83 50 bd 0d af 64 bd 8e ad 58 bd 01 77 2f 3c
       -0.05090675 -0.055831004 -0.05289989 0.010709525
0002c0 6b 4f 81 3c 0a 50 a3 3c 66 62 ee bc 41 1d 55 3c
       0.01578494 0.019935627 -0.029099654 0.013007463
0002d0 27 9b 3b bd 92 2b 68 bc ae 9b e3 bc 99 28 9c bd
       -0.04580226 -0.014170544 -0.027784195 -0.07624931
0002e0 2c 98 be bc 41 72 71 3d 87 4a 15 bd 28 4f 45 3d
       -0.02326592 0.05894685 -0.036448028 0.048171192
0002f0 cc ad a5 bd 3e c8 f0 bc 92 82 4e 3d 1c 93 f5 3c
       -0.0808979 -0.029392358 0.05041749 0.029977374
000300 d4 9e 62 bd 03 2d a0 bd bc 9d 61 ba a9 96 55 bd
       -0.05532725 -0.07821085 -0.0008606573 -0.052145634
000310 82 f5 47 3d 78 7a bc 3c 59 9e 0f 3d bb 7d 50 3d
       0.04881812 0.023007616 0.03506312 0.050901156

base.2.0.weight f4 [200, 200]
000000 e5 03 b3 bc df 58 94 3d 06 eb cb bd cd a0 a6 bc
       -0.021852443 0.07243513 -0.099569365 -0.020340348
000010 3a 98 2b 3d 11 06 52 bd e0 b0 d3 bd 99 27 1c bd
       0.04189322 -0.051275317 -0.103364706 -0.0381237
000020 f6 e6 28 3d fd 1e df ba 8b 48 25 bc 1a b5 7f bd
       0.041235887 -0.0017022785 -0.010088096 -0.06242857
000030 26 95 87 bd 26 67 1e 3c 54 57 78 bd b5 70 ac bd
       -0.06620245 0.009668147 -0.060630158 -0.08419935
000040 94 61 e8 3b 84 06 8c bc 43 70 bb bd 00 93 80 bd
       0.0070917103 -0.01709295 -0.091522716 -0.06278038
000050 61 0d ed bc b3 09 73 bd 48 6a c7 bc 3f 0f 07 bd
       -0.028937044 -0.05933542 -0.024342671 -0.032973524
000060 ef 72 d2 bd f1 17 e4 3c 8d 5f ca 3c 99 48 91 3d
       -0.10275828 0.027843447 0.024703765 0.07093925
000070 93 c8 85 bd 6c 69 b4 bb f9 4c 5a bd 35 78 5c bd
       -0.06532397 -0.0055057313 -0.053296063 -0.053825576
000080 4c 7e 78 3d e2 4f ca 3c 4b 26 0c be 24 0c 25 3d
       0.06066732 0.024696294 -0.13686483 0.04029478
000090 bc 57 49 3d 75 b3 a5 bc 85 7e a7 bc ec a5 d8 3c
       0.049155936 -0.020227173 -0.020446071 0.026446305
0000a0 23 8e 2c bb b3 da 45 3a e9 b7 98 3d 23 42 61 bc
       -0.0026329837 0.00075475423 0.07456953 -0.013748678
0000b0 e8 4a 00 3d 0e 3a a0 bc c5 82 35 3d 8b f9 42 bd
       0.031321436 -0.019558933 0.044314165 -0.047601264
0000c0 39 f8 47 3b 2a de 63 3d ab 0d c1 bd fe da b6 39
       0.0030512942 0.055631794 -0.09426435 0.00034876907
0000d0 47 b8 b1 bd be 2d b5 bc b5 12 2e bd 0a d3 00 be
       -0.08677726 -0.022116538 -0.04249831 -0.12580505
0000e0 45 74 c7 bc 1b 4d b4 3c 3a 44 00 3c c5 8d 1a 3c
       -0.024347434 0.022009423 0.0078287665 0.009433215
0000f0 54 31 26 bd 81 4c 23 3d 21 f3 bf bc 52 4b 35 3d
       -0.040574387 0.03986788 -0.023431363 0.044261284
000100 3d 8e 2b 3d 24 99 86 bd 76 9e 85 3c ae 3a d0 bd
       0.041883696 -0.06572178 0.016310912 -0.10167442
000110 9d 45 ed 3c 4e 86 8a bd a9 55 75 bc 35 80 90 bd
       0.028963858 -0.06763898 -0.014974036 -0.070557036
000120 7e b1 89 3d a9 8a 4f 3d f1 3c d1 bc 5f 72 1a bd
       0.06723307 0.050669346 -0.025541754 -0.03770673
000130 d2 d3 50 bd 3b 4e 3c 3c fb c7 7f bd 84 ff aa bc
       -0.050983258 0.011493261 -0.062446576 -0.020873792
000140 15 66 97 3d 87 62 a0 3d ba b1 4f bd b1 e4 96 bd
       0.073925175 0.078312926 -0.050706603 -0.07367838
000150 f3 a1 5c 3d 6f c6 38 bc 3f 18 ab bd a9 f7 03 bc
       0.053865384 -0.011277779 -0.08354234 -0.008054652
000160 41 c5 2f 3d 7d 19 b0 bc b2 65 04 bb 48 37 b5 bd
       0.042912725 -0.021496529 -0.0020202217 -0.08848435
000170 49 27 ec 3c d3 49 0c bd f7 65 a8 bd 37 bd c5 bd
       0.028827326 -0.03425009 -0.08222573 -0.096552305
000180 6f 6e b8 3d 4b 5d a7 bd 93 1d 06 3e 80 0e 1a 3d
       0.090054385 -0.08172091 0.13097219 0.037611485
000190 55 54 c6 3d b9 4a 38 bc 88 06 cc 3b c8 78 52 bd
       0.09684054 -0.011248284 0.0062263645 -0.051384717
0001a0 84 5c 09 bd d3 6e 07 bb 32 98 82 3d 34 2f e6 3d
       -0.033535495 -0.0020665422 0.06376685 0.11239472
0001b0 09 6e 64 bd 44 91 53 bc 4e 02 91 bd b2 27 1d bd
       -0.055769 -0.012913052 -0.07080518 -0.038367935
0001c0 4c f4 96 3d cd 50 9f bd 37 f8 aa 3c 84 98 f1 bc
       0.07370815 -0.077790834 0.020870311 -0.02949167
0001d0 6b aa 3d bd 9e 01 6b 3d 57 3c 95 bc 2f 4b 97 3d
       -0.0463051 0.05737459 -0.018217249 0.07387387
0001e0 2c 65 cf 3c 95 c0 a3 3c 74 c6 c2 bb 75 63 c7 bc
       0.025316797 0.019989291 -0.0059440676 -0.024339417
0001f0 32 9f 90 3d 5f af 1d bd 04 86 9e bb 0f 20 84 3a
       0.07061614 -0.038497325 -0.0048377533 0.0010080355
000200 ac 43 b9 3d fe 59 a1 bc 23 58 e5 3d a9 30 6d 3d
       0.090461105 -0.019696232 0.11198451 0.057907734
000210 12 41 29 bd 40 82 13 bd a6 16 54 bd 19 e6 77 3d
       -0.04132182 -0.036012888 -0.05177941 0.060522173
000220 54 e1 80 bc 90 fe a3 bd f6 50 a7 3d 89 b2 94 bd
       -0.015732445 -0.08007538 0.08169739 -0.072606154
000230 5d c2 8d 3b ae 73 69 3c 37 82 c1 bd 17 08 83 3d
       0.0043261484 0.014248772 -0.09448665 0.063980274
000240 f1 95 01 bd 78 3f ae 3c 12 ac 1e bd e1 5a ab 3d
       -0.031637136 0.021270499 -0.038738318 0.08366943
000250 bd 01 a7 bc 8d 0f 8d 3c 90 f8 10 bd 40 07 61 3d
       -0.020386571 0.01721933 -0.035393298 0.054938555
000260 95 5b 76 bd c7 03 1d 3d 0b e1 84 3c 2c ee 09 3d
       -0.060145933 0.03833368 0.01622059 0.033674404
000270 b4 89 60 3d fa c8 2f bd 50 1f 46 3d a5 b2 66 3c
       0.054818824 -0.042916276 0.048369706 0.014080678
000280 b5 ab 3a bc c9 16 0e 3d 28 62 27 bd 2c 1a 3c bd
       -0.011393477 0.0346897 -0.040865093 -0.045923397
000290 4c 6e 50 bc 0a bb 87 3d b2 a8 f8 3c ed 71 52 bc
       -0.012721609 0.06627472 0.030353878 -0.012844545
0002a0 7f 95 9c 3b 68 91 c2 3d 3e ac 20 3d 3c be 15 bc
       0.0047785635 0.0950039 0.039226763 -0.009139594
0002b0 30 31 73 bd d7 b8 85 bd f6 3b 95 bc 22 c8 97 3c
       -0.05937308 -0.06529396 -0.018217068 0.018528048
0002c0 94 97 2b bb 5b d9 1c 3d a3 0d 35 3b 27 d9 17 3e
       -0.0026182877 0.038293224 0.0027626536 0.14828931
0002d0 4f 9a a1 3d fd 6c 89 bd 3a 43 03 bc 04 90 13 bc
       0.0789076 -0.06710241 -0.0080116335 -0.009006504
0002e0 74 2f e5 bc 88 fc 04 be 8b b0 b8 bc 4f cb 54 3c
       -0.027976729 -0.12986958 -0.02254512 0.012987926
0002f0 2c 94 7a 3d a4 6d 2b bd 7f 3e 05 3b e7 1e ba bd
       0.061176464 -0.04185261 0.002033144 -0.090879254
000300 69 a2 70 bd 66 97 02 3c 09 42 91 bd 6a e7 5a 3d
       -0.058748636 0.0079706665 -0.07092673 0.05344335
000310 e3 bb e4 bc ff 11 11 3d ad d8 4a bd ef 3e 35 bc
       -0.027921623 0.035417553 -0.049523044 -0.011062368
000320 da 31 b4 bd a4 26 c2 bd 6f 8d 32 bd 75 1d cc 3c
       -0.08798571 -0.09480026 -0.043591913 0.02491639
000330 d8 e6 88 3d 2d c8 4b 3d 25 0f 94 3d 90 60 9a bd
       0.06684655 0.04975145 0.07229451 -0.07537949
000340 56 d2 b5 3d e5 90 aa 3c 07 50 9f 3c a3 e1 7c 3d
       0.08878009 0.020821044 0.01944734 0.06173862
000350 09 26 66 bc 46 a5 19 3c 53 bd 19 3d 63 83 8e bd
       -0.014047154 0.009377783 0.03753407 -0.06958654
000360 7b ba af bc af 50 8d 3d 5e 2e b7 3c b7 36 ab bd
       -0.021451226 0.06900155 0.022360977 -0.083600454
000370 62 fa 24 bd c9 42 c6 3c b3 e8 e3 3c 6a d8 30 bd
       -0.040277846 0.024201768 0.02782092 -0.04317514
000380 75 07 ca bd e2 6d 08 bb c5 d8 39 3d 73 d6 0f bd
       -0.098647036 -0.0020817448 0.045372743 -0.035116624
000390 92 22 2d bd b3 30 03 bd 1b 8c 0b bd d4 c7 a9 bc
       -0.042269297 -0.032028865 -0.03406916 -0.020725168
0003a0 87 79 79 3d 04 38 95 bd bc 9c 7f bd cf b8 29 3d
       0.060906913 -0.07286075 -0.062405333 0.041436013
0003b0 49 45 30 bd 2a b3 1c bc ca 84 83 3c 4a 3f 9d 3d
       -0.043034825 -0.0095642 0.01605453 0.07678087
0003c0 0f 5f 44 3c 70 59 90 bc 2e fc d5 3d 81 17 32 bb
       0.011985554 -0.017620772 0.1044849 -0.0027174654
0003d0 21 7c 88 3c 23 c6 a2 3c e7 64 f8 3d 32 8a ae bd
       0.016660752 0.01986987 0.121286206 -0.085224524
0003e0 e0 76 53 3d 1b 07 cf bd a6 ff 89 3d 60 80 e1 3b
       0.05162704 -0.10108777 0.06738214 0.0068817586
0003f0 09 10 78 bd 4f d8 0c bd 92 db f2 bc f6 80 81 3a
       -0.060562167 -0.034385975 -0.029645715 0.0009880352

base.2.0.bias f4 [200]
000000 0d 94 2d 3d 3d 6e 73 bc 94 ee 6a bd ad f7 59 3d
       0.04237752 -0.014857826 -0.057356432 0.053214718
000010 04 3e 66 3d e6 77 31 bd 97 f4 de bc ba c3 31 3d
       0.056211486 -0.043327235 -0.027216239 0.04339955
000020 16 09 02 3d 51 c5 d9 bb 6b 19 27 3c d4 ce 75 bd
       0.031746946 -0.0066458364 0.010198931 -0.0600117
000030 44 14 aa bc d7 84 9a bd bc f6 7e 3d a5 73 3e 3d
       -0.020761617 -0.075448684 0.062247023 0.046497006
000040 70 f5 a5 bd 96 02 4f 3d 99 13 89 bd f8 24 c4 3b
       -0.08103454 0.050539576 -0.06693191 0.0059858523
000050 ba 96 f1 3c e8 c1 61 bb bd 72 94 bb dd 73 6b 3d
       0.029490817 -0.0034447853 -0.0045302794 0.057483543
000060 ec e7 14 3c c1 3c ad bb 24 86 38 bd 42 f3 8b bd
       0.009088498 -0.0052867834 -0.0450498 -0.06833507
000070 80 45 34 bc e8 e1 8a bd ea f8 b3 3c 59 c2 31 3d
       -0.011002898 -0.067813694 0.021969277 0.043398235
000080 57 8f b7 3d 4b 28 b7 3d e5 8b 07 bd a6 e6 4d 3d
       0.08962887 0.08943232 -0.0330924 0.05026879
000090 c4 97 29 3d a9 91 e8 3b b4 0b 4e bc 7b b8 59 bd
       0.0414045 0.007097442 -0.012576032 -0.05315445
0000a0 a5 37 64 3d 31 f3 e8 bc b7 69 de 3c 61 26 7e 3d
       0.05571713 -0.028436275 0.027150018 0.06204832
0000b0 40 9a a4 ba 88 fa c8 bb 55 89 94 3c f2 53 d9 3c
       -0.0012558177 -0.0061333813 0.018131891 0.026529286
0000c0 66 96 74 3d dc 52 c0 3c 19 27 72 bd 2f 68 73 bd
       0.059713744 0.02347701 -0.059119318 -0.05942553
0000d0 56 a9 5b bc 83 73 f4 bb 00 7f ae bd b9 bb 61 3a
       -0.013407072 -0.007460059 -0.08520317 0.00086110417
0000e0 09 3e ba bc 94 b5 42 3d 7f ad 92 3c bd 33 51 bd
       -0.022734659 0.047536448 0.017904995 -0.051074732
0000f0 56 4e 3b 3d 4e a0 1d 3d 93 51 aa bc de b7 ab bc
       0.045729004 0.038482957 -0.02079085 -0.020961698
000100 8b 8f 74 3d f2 1e 07 bd 2e cb 8d bd 82 9f 7e 3c
       0.059707206 -0.032988496 -0.06923519 0.015540959
000110 f1 36 88 3c 3a c3 13 3d 8d 61 23 bd 2f 22 28 bc
       0.01662776 0.036074854 -0.039887954 -0.010262056
000120 b7 dd 44 3d fa ec 82 3c 51 6f bb ba 81 82 04 bc
       0.048063006 0.01598214 -0.0014300143 -0.008087755
000130 8b 86 a5 3d 6c 4c d6 bd fd f3 86 bd 0a 85 92 bc
       0.08082303 -0.10463795 -0.06589506 -0.017885704
000140 b4 3a a2 bc 23 f1 08 3d 60 47 18 bd bd f1 8a 3d
       -0.019803382 0.03343309 -0.037177444 0.06784389
000150 1b 83 7a bd 85 3b fd 3c e7 d9 ea bb 61 e6 34 3d
       -0.06116019 0.03091217 -0.0071670893 0.04416502
000160 9c 7f 9d 3c 62 a0 46 3d 33 9a 74 3d c9 52 46 bd
       0.019225888 0.048492797 0.05971737 -0.048418794
000170 7f dc 2a 3d 68 72 79 bc 2e 0b 60 bd 51 2c 2e 3d
       0.041714188 -0.0152250305 -0.05469816 0.042522732
000180 6d 96 ab bd d1 0d 38 bd 99 e8 42 bd c4 5d 48 bd
       -0.08378301 -0.04493505 -0.047585104 -0.048917547
000190 16 bf a2 ba 98 ce ab bd c8 8e d1 bc 52 df 79 bd
       -0.0012416567 -0.08389014 -0.025580779 -0.06100399
0001a0 df bb 9a 3a 3f 82 f5 3c 5c 5e 20 3d 7c b4 fa bc
       0.0011805258 0.029969333 0.039152488 -0.03060364
0001b0 5e f8 dc bc 1e d4 4d bb 4b 0d 62 3d 78 d0 29 bd
       -0.0269739 -0.003140695 0.05518846 -0.041458577
0001c0 e4 a2 39 bd c4 8f 09 3d 82 b5 1a 3d 27 69 e2 bc
       -0.04532136 0.03358437 0.037770756 -0.027638031
0001d0 cb b3 6d bd e3 20 ee 3c aa b8 89 3d bc 23 54 bd
       -0.058032792 0.029068416 0.06724675 -0.05179189
0001e0 69 c9 2b bd 4b 5b 25 3d a6 93 bd 3c 0b 4a d3 bc
       -0.041940127 0.040370267 0.023141693 -0.025792142
0001f0 3f 1a b7 3d 62 18 52 3b ab c9 38 bd d0 85 6e bd
       0.08940553 0.003205799 -0.0451142 -0.058233082
000200 b7 7e a3 bd 21 73 24 3c 01 bc 5b 3d fc 31 12 bc
       -0.07983153 0.0100372145 0.05364609 -0.00892305
000210 be 2d c8 3b 43 9e 3e 3d f6 1d 7f bd 4a 04 1a 3d
       0.0061089685 0.04653765 -0.062284432 0.037601747
000220 16 a1 ab 3c 88 5e 83 3d 67 eb 40 3d cd 30 b2 bc
       0.020950835 0.06414515 0.047099497 -0.021751786
000230 1c d1 af 3c 4a 53 94 bd e3 f2 45 3d 5b 5d 60 3d
       0.021462016 -0.07242449 0.048327338 0.05477653
000240 04 6b 72 bd c4 3c 09 bc e6 7e 06 bd 5c 71 67 3c
       -0.05918409 -0.008376304 -0.032835864 0.014126148
000250 ee dd 20 3c b1 dd 86 3c fc 9c 8e bc db c1 53 bd
       0.009818537 0.016463133 -0.01740884 -0.051698547
000260 b9 41 75 bd fa 65 ee bc ce b5 11 3c 9e 3d 85 3d
       -0.05987713 -0.02910136 0.008893443 0.06505893
000270 a0 86 cf 3c 5c 9d 6a 3c 57 89 29 bd b9 57 a7 3d
       0.025332749 0.014319744 -0.041390743 0.08171029
000280 68 1b f0 3c ed 2e ab 3c b1 10 0c bd 10 ed 1c 3d
       0.029309943 0.0208964 -0.034195606 0.038312018
000290 3c 38 77 bd 78 3d 40 3d 47 79 4f 3d 9c 1d 36 3a
       -0.060356364 0.04693362 0.05065277 0.0006947161
0002a0 a8 64 24 bc c4 9d a0 bc c0 cc 36 3b 82 04 63 bc
       -0.010033764 -0.019606479 0.0027893037 -0.013856055
0002b0 db ac b3 3b 73 d4 55 bd 17 f3 7f bd 2c 74 22 3d
       0.0054832525 -0.05220456 -0.062487688 0.03966157
0002c0 87 85 60 bd 47 b6 f1 3c bc fc 29 bd f4 16 55 3d
       -0.05481484 0.029505862 -0.041500792 0.052023843
0002d0 48 4c 13 bd d0 37 31 3d 8c a4 2d 3c 5e 15 2b bd
       -0.03596142 0.043266118 0.010598313 -0.041768424
0002e0 3b 7f a0 3c 12 fd 56 3c 31 cc b9 bc 0b f2 4e bd
       0.019591918 0.01312186 -0.022680374 -0.0505238
0002f0 92 94 91 bd e9 a8 50 bc 1e 20 83 3c 31 9d 2f bd
       -0.07108416 -0.012735584 0.016006526 -0.04287452
000300 58 17 e8 3a 8b 27 d2 3c 69 05 06 3c a4 42 4b bd
       0.0017707152 0.025653621 0.008180001 -0.0496241
000310 23 73 9c bd 1a 94 b0 bc e4 5c 03 3d 3e f1 90 3b
       -0.07639148 -0.021554995 0.03207101 0.0044232896

actor_lin.weight f4 [2, 200]
000000 a1 31 f9 3d d9 f6 78 3d ab 6d 04 bd 54 bc 5a 3d
       0.12167669 0.060782287 -0.03233115 0.05340226
000010 0f c3 b3 bc 9a 81 b2 3c 65 67 0f 3c d4 e5 ae bd
       -0.021943597 0.021790314 0.0087526785 -0.0853993
000020 4c cb 8e 3d 6a 23 cf bd 9d e0 46 3c 5c 2d ec bd
       0.069723696 -0.101141766 0.012138513 -0.11532089
000030 6e 83 9a 3d ed d9 ad bd 32 9e cd 3d 15 8f a2 bd
       0.075445995 -0.08488832 0.10039939 -0.07937447
000040 76 06 2d bd cf a1 62 3c 41 f9 e9 3c da a1 0d 3e
       -0.04224249 0.0138325235 0.028561236 0.13831273
000050 70 3a 27 3c 68 7f 9c 3c 22 ec 09 bd 90 13 38 3e
       0.010206804 0.01910372 -0.03367246 0.17976213
000060 ec 4f 87 bc 83 f9 05 3e 0d c7 ac 3d 41 4e 6d 3d
       -0.016517602 0.13083462 0.084364034 0.057935957
000070 84 00 96 bb de 66 1f bd c3 9d a2 bc 27 82 61 bd
       -0.004577698 -0.03891646 -0.019850617 -0.055055764
000080 50 76 87 bc cd 6b b1 3d 96 f5 e6 3d 4b aa 40 3c
       -0.016535908 0.086631395 0.112773106 0.011759351
000090 b7 d4 ae bd ba 49 ba 3c c8 ee 36 3d 6a d7 fb 3d
       -0.08536666 0.022740234 0.044661313 0.12296946
0000a0 79 40 a6 3d 4a 0c 2b 3b f6 fd b7 bd e6 6c a9 3c
       0.08117766 0.0026099854 -0.08983986 0.02068181
0000b0 e7 6c 24 bd e9 4a 2d bd e2 30 08 bc 7b fb c4 3d
       -0.04014292 -0.042307768 -0.008312436 0.096182786
0000c0 14 c2 3b bd 5b 4a bc 3d 23 2f ac bd 24 ab 9c 3c
       -0.045839384 0.0919387 -0.08407428 0.019124575
0000d0 97 74 11 bb 02 7c e6 ba 73 f4 7e 3d 33 37 c7 3c
       -0.0022194737 -0.0017584565 0.062244844 0.024318313
0000e0 b1 6f 24 bd 0f e0 bb bd 79 dc 8b bc 79 45 d2 3d
       -0.04014558 -0.09173595 -0.017072903 0.10267157
0000f0 79 c9 07 bd ff 54 b8 3d 3a bc 9b bd 22 f6 15 bc
       -0.033151124 0.09000587 -0.07604261 -0.009152921
000100 f3 0d 3c 3c e9 c5 a5 3c 70 f3 92 3d f1 cc fd 3d
       0.011477935 0.020235972 0.07175338 0.12392605
000110 65 5b ae 3d c3 de f3 bb 36 70 29 3d 0d cb 94 3d
       0.08513526 -0.0074423268 0.04136678 0.07265291
000120 1e c6 e6 3d 35 a3 b3 bd 60 05 a7 3d b5 eb 5a 3d
       0.112682566 -0.08771364 0.08155322 0.053447444
000130 12 48 f9 bd 27 c6 eb 3d 53 8c f8 3c 38 d6 b4 3b
       -0.121719494 0.11512404 0.03034035 0.005518701
000140 ff e5 44 bc 70 4b 50 bd 14 ae de bc b4 bc 84 bd
       -0.012017726 -0.050853193 -0.027182616 -0.06481305
000150 84 b3 71 bd 36 5d 93 bc 4c 27 09 3e a3 1d 11 be
       -0.05900909 -0.017988782 0.13393897 -0.14171462
000160 b6 55 15 3d ee 0d b7 3d 24 71 ec bc 90 5c 59 bd
       0.036458693 0.08938204 -0.028862543 -0.05306679
000170 79 17 39 bd 19 eb 84 3c 12 a8 71 3d 37 28 7d 3d
       -0.0451884 0.016225385 0.058998175 0.06180593
000180 97 b4 0c bd 38 a2 a3 bc 38 1b c5 3d 6e 51 69 bc
       -0.03435191 -0.019974813 0.09624332 -0.014240606
000190 6e 0e dc 3d e8 41 83 bd fd 21 81 3c e3 b9 89 3d
       0.1074494 -0.06409055 0.015763277 0.06724908
0001a0 c9 7e f1 3d ca 0a c0 3c de b2 93 3d 22 ac d1 3b
       0.117917605 0.023442645 0.072118506 0.0063986937
0001b0 c5 72 a9 3d 12 c2 06 3d 60 24 50 bd d6 11 14 3e
       0.08273844 0.032899924 -0.05081594 0.14459929
0001c0 b1 9d 5a bd 39 89 b1 bc 67 cc 08 3d 8c 7f 08 bd
       -0.053373042 -0.021671878 0.03339806 -0.033324763
0001d0 c6 97 28 bd 3c 4e 2a 3e 21 2c 06 3d 2b 7d ae bc
       -0.041160367 0.16631407 0.03275693 -0.02129992
0001e0 af 02 7d 3d c2 09 df 3d 66 42 d8 bd 53 2a e6 3d
       0.061770137 0.10890533 -0.105595395 0.112385415
0001f0 41 00 05 bd c6 5c 2a 3c eb 42 a0 3d 67 f6 61 bd
       -0.032470945 0.0103980955 0.078252636 -0.05516663
000200 20 33 37 3a fe b3 29 3d 5f b5 fc 3c 4e 36 7e bd
       0.0006988514 0.04143142 0.030848203 -0.062063508
000210 11 fc 70 bd ee 27 a7 3d 6d fd 53 3d ac be ab 3d
       -0.05883414 0.08161913 0.051755358 0.08385977
000220 a4 0e 8d 3d 4b cf 82 bd 9c d4 58 bd dd 7e 8e 3c
       0.06887558 -0.06387194 -0.052937135 0.017394478
000230 5d ca 52 bd 59 42 82 bd a6 c0 aa bc f7 6d a6 bd
       -0.05146252 -0.06360311 -0.020843815 -0.08126443
000240 ad 93 54 bd 83 98 ce bc 90 2a cc 3c 98 9f 62 bd
       -0.051898647 -0.025219208 0.02492264 -0.05532798
000250 59 04 67 3d e2 26 0a 3b 45 dd 99 3c d0 86 76 3d
       0.05640063 0.0021080305 0.018782267 0.06018716
000260 42 19 6d bd 33 9a 72 bd 31 62 4e bd 68 b7 96 3d
       -0.057885416 -0.059229087 -0.05038661 0.07359201
000270 2c 58 a0 bd 86 06 77 3d ea ac b9 bd 19 81 02 bd
       -0.078293175 0.060308956 -0.09066184 -0.0318614
000280 48 8f 42 3e a3 29 9c bc eb 78 d6 3b de bb 06 3e
       0.1899997 -0.019062823 0.0065451763 0.13157603
000290 9a 72 64 bc ea 51 62 bd 43 a5 df bd 04 68 44 3a
       -0.013943339 -0.0552539 -0.10920193 0.0007492306
0002a0 7a 92 dd bd f7 cc 75 bd ab 57 28 3d 60 d3 b3 bd
       -0.10818954 -0.060009923 0.04109923 -0.08780551
0002b0 bd 32 3a 3e 50 b6 2e 3e e3 48 4c bd 89 18 60 bd
       0.18183418 0.17061734 -0.049874198 -0.0547109
0002c0 1f 76 a4 3d 6d 1b 28 bb 26 00 8b bd 46 a3 9a bd
       0.08030342 -0.0025651113 -0.06787138 -0.07550673
0002d0 3c b0 14 bd 97 0c 14 be c5 80 89 3d a4 a6 91 3d
       -0.036300883 -0.14457928 0.06714014 0.07111862
0002e0 97 11 33 bd da 5d f6 3d 2b 5f d2 bc b1 e6 93 bd
       -0.043717947 0.120296195 -0.025680145 -0.07221735
0002f0 a0 71 b5 bd c7 a8 bb 3d 2f 87 15 3d 17 94 dc bc
       -0.08859563 0.09163051 0.036505874 -0.026926083
000300 1f bd 02 bd 65 82 d9 bc 7f be 5e bd 52 6c fb bd
       -0.03191864 -0.026551435 -0.05438089 -0.1227652
000310 a2 4e ef 3c 27 de a6 bd 18 b4 fd bd 34 f7 93 3d
       0.0292123 -0.08147841 -0.12387866 0.07224885
000320 76 80 26 bd 99 06 d5 3b 33 37 c7 3d 28 bb 8b ba
       -0.040649854 0.0065010306 0.09727325 -0.0010660635
000330 0f e2 0a be 69 de ca bb 5e 5c c5 3d 0d f1 c3 3c
       -0.13562797 -0.006191064 0.09636758 0.023918653
000340 02 06 ba bb d0 e4 81 bd 82 31 78 bd ae 16 7c 3c
       -0.0056769857 -0.06342471 -0.06059409 0.015386267
000350 82 f3 c5 3b 4e 7d 10 3d 83 7a 94 bd 5d b3 ff 3a
       0.0060409913 0.03527575 -0.0724993 0.001950841
000360 c6 ee 07 3e 64 bc a9 bd be d2 d4 bd 26 72 d5 3c
       0.13274679 -0.08287886 -0.103917584 0.026055407
000370 c6 a9 2c 39 8d 50 de 3d bd 7c 17 bd 85 bd 97 bc
       0.00016466444 0.108552076 -0.036984194 -0.018522987
000380 bf c4 60 bd d2 98 19 bd d0 8a 42 3d b4 3a 91 bd
       -0.05487513 -0.037499256 0.047495663 -0.07091275
000390 ac 01 b5 bd 01 8f 4c 3d 0f aa 02 bc d5 84 89 3d
       -0.088382095 0.049941067 -0.007975115 0.06714789
0003a0 c8 be a6 bd 02 6b 45 3e 13 af ea 3a b2 09 b7 3d
       -0.081418574 0.19279101 0.0017904959 0.08937396
0003b0 67 f7 aa 3d e6 7f db 3d b0 4c ab 3d 9b 55 3c 3d
       0.083479695 0.10717754 0.08364236 0.045980077
0003c0 70 29 01 be 0c ab 0f 3d cb dd aa bd bd f4 6e 3d
       -0.12613463 0.035075232 -0.08343085 0.05833887
0003d0 80 bf 6a bd b8 97 e6 bc 6e ac 00 be 25 ef 81 3d
       -0.057311535 -0.028148517 -0.12565777 0.06344441
0003e0 9f 3a f4 bc 36 6c aa bc 09 91 23 bd 4b ff 54 bd
       -0.029813109 -0.020803552 -0.03993324 -0.05200128
0003f0 ab 9a 52 bc f4 1b c3 bd 90 d6 a1 bd 2a b8 ed 3d
       -0.0128542585 -0.09526816 -0.07902253 0.11607392

actor_lin.bias f4 [2]
000000 67 33 fd 3c 56 11 37 3c
       0.0309083 0.011173567
