2-2-deep-q-networks/exercise/checkpoint.pth (torch_old, 21067 bytes, 6 tensors)

model.0.weight f4 [64, 8]
000000 cc 28 e9 be 39 13 a3 3e ba 3c 3b bf 0b 58 2d 3e
       -0.45538938 0.31850603 -0.73139536 0.16928117
000010 1a ac af 3f a7 92 ba 3e 7f cb c5 bd b6 6c 9e 3d
       1.3724396 0.36440012 -0.096579544 0.07735579
000020 e8 f2 ba bd 68 0f 24 3d ae 51 e9 3d c7 a5 56 3e
       -0.09128362 0.040053755 0.11392532 0.20961677
000030 b0 10 80 bd ee f6 02 bf 55 0f e3 bc 34 02 35 3f
       -0.06253183 -0.51158035 -0.027717272 0.70706487
000040 71 a3 10 bd 96 b2 d5 3e f1 f3 81 bd 00 bb fe 3e
       -0.03531212 0.41737813 -0.06345356 0.49752045
000050 2b 18 59 3f 8a 1b f3 3d d9 3c e7 3e a8 58 0e 3f
       0.848025 0.11870487 0.4516361 0.5560403
000060 2d 05 39 3e 93 d1 5b bf d6 f0 b5 3f 84 c2 06 3f
       0.1806838 -0.8586666 1.4214122 0.5264056
000070 7f fc 81 bf 6e 90 dc bd f0 22 08 be f9 2d 26 3f
       -1.0155181 -0.10769735 -0.13294578 0.649139
000080 0b 3d 90 bf 32 0d 82 bf b3 75 57 bf 3f e4 12 3f
       -1.1268629 -1.0160277 -0.8416397 0.57379526
000090 0d f9 d7 3e 89 13 22 3e cf fd 88 3e 0b 39 d2 3e
       0.42182198 0.15827765 0.2675614 0.41059145
0000a0 db 9c df 3e fb a7 18 bf a2 83 ad 3e b8 23 de 3d
       0.4367436 -0.5963132 0.3388949 0.108466566
0000b0 6e ee bb bd 81 c9 a3 be 5f a8 b0 3e 92 fb 25 3f
       -0.09176336 -0.31989673 0.34503457 0.6483699
0000c0 cb 48 71 be 1f c9 2d bf 88 04 9b bd f8 8b 12 bd
       -0.23562925 -0.6788501 -0.07569224 -0.035778016
0000d0 99 4c 5b 3f 8e 00 b2 3e f0 bc b9 3e 45 59 9c 3e
       0.85663754 0.34766048 0.3627696 0.30536857
0000e0 a9 eb 91 3e c8 1b 55 c0 b5 96 6f bf 76 27 99 bf
       0.28500107 -3.3298206 -0.93589336 -1.1965168
0000f0 3f 10 1a 3e d1 80 5b bd 55 b1 af bd ff e7 a7 3e
       0.1504526 -0.053589646 -0.08578745 0.32794186
000100 63 1a b9 3e 4a 86 9f 3e 2b 32 20 bf 7c fe 90 3e
       0.36152944 0.31157142 -0.6257655 0.28319156
000110 64 06 af be fe ac 1a 3f 5e 15 5e bf 2e c1 8a 3e
       -0.34184563 0.60420215 -0.86751354 0.2710051
000120 54 6f d4 3d 99 88 4d 3f c1 67 1f 3d 32 72 98 3d
       0.10372797 0.80286556 0.038917307 0.07443656
000130 76 4f d1 3f ff 94 96 bf 3a 8f a5 be 8a 31 e7 be
       1.6352375 -1.176422 -0.32335836 -0.45154983
000140 39 6c 86 bf 29 e0 ab bd 71 7e bf 3d 4f d6 d5 bf
       -1.0501777 -0.083923645 0.09350289 -1.6706027
000150 45 13 c9 be 67 e0 a3 be 8e d9 16 3d 52 36 44 be
       -0.39272514 -0.32007143 0.03682857 -0.19161347
000160 0e 50 c9 3d 8d b4 9e 39 6c e9 5b 3f ee 85 a6 be
       0.09829722 0.0003027063 0.8590305 -0.32524055
000170 a9 0c 8e 3d e4 e3 18 3f b4 e1 74 3d 35 0f 80 bf
       0.069360085 0.59722733 0.05978556 -1.0004641
000180 84 dd 86 bd 82 50 96 bd 97 28 2a bf 22 db c0 bf
       -0.065852195 -0.073395744 -0.66468185 -1.5066874
000190 f1 87 34 3f 79 2c 4b 3f 5e df e4 3e 51 d0 c9 3d
       0.7051993 0.79364735 0.44701666 0.09854186
0001a0 38 08 d4 bf b8 90 0e bf 5b ae 34 bf ed ab 59 be
       -1.6565008 -0.55689573 -0.70578545 -0.2125699
0001b0 51 0c 4c 3f 67 4e 87 3e 36 54 95 3c 34 96 5e 3e
       0.79706293 0.26427004 0.018228631 0.21736985
0001c0 88 cb 82 3e b4 f4 f8 3e e4 30 84 bf d8 45 af bf
       0.25545907 0.48624194 -1.032742 -1.369319
0001d0 f3 30 60 bf af 2b 8d bc 4c 53 07 3d 15 d4 29 bf
       -0.8757469 -0.017232744 0.033038422 -0.66339236
0001e0 9b 46 7d be 75 1c 5b 3e 9f 98 79 3e 06 cc e4 3e
       -0.24733965 0.21397574 0.24374627 0.44686908
0001f0 bd 69 0a bf fa 5f 00 bf ca 14 87 bf a8 69 18 bf
       -0.54067594 -0.5014645 -1.0553219 -0.5953622
000200 7d db a6 bb 9e ef ba 3d 1e b1 b1 bd a0 03 51 be
       -0.005092083 0.091277346 -0.086763605 -0.20411539
000210 cc ab 97 be af 73 a8 be db 16 bf 3e 49 1e 75 3e
       -0.29623258 -0.3290076 0.37322125 0.23937334
000220 3e 63 1e 3f 0a 89 c7 3e e9 cd 3d 3f c3 3b d4 3e
       0.6187018 0.3897174 0.7414232 0.41451845
000230 87 b7 92 be 21 12 b8 3e 37 2d 43 3f 76 98 ed be
       -0.28655645 0.3595133 0.7624087 -0.4640538
000240 5f ff 81 bf 3d 00 8d bd cb 0c e5 3e a7 ab 25 bf
       -1.0156058 -0.06884811 0.44736323 -0.64715046
000250 9f f9 83 3d ed 5b 49 3e 08 68 45 be 93 57 3a bf
       0.06444096 0.19663973 -0.19277966 -0.7278988
000260 86 1b 7b bf 17 85 fa be d1 e5 38 3f 24 ef 08 c0
       -0.9808887 -0.48929664 0.7222567 -2.139596
000270 4f d4 c9 3e 5f 03 06 bf e2 3f b6 3d fc 14 24 bd
       0.3941979 -0.52348894 0.088989034 -0.040059075
000280 19 5a 6e bf 6a ff a3 bf 6d 65 90 bf 1a e9 36 bf
       -0.9310623 -1.2812321 -1.1280953 -0.71449435
000290 37 10 54 3e d6 48 91 bd 2e e2 2b 3e be c4 91 be
       0.2070931 -0.070939705 0.167855 -0.28470415
0002a0 a8 61 42 3f 02 f9 e5 bf 5a e6 d5 3e 12 10 98 bf
       0.7593026 -1.7966616 0.41777307 -1.1879904
0002b0 76 16 2f 3f 9b 82 b0 bd 69 b8 08 bf 9c 1e 19 3d
       0.6839365 -0.08618661 -0.5340639 0.037382707
0002c0 e0 62 1a 3e 20 c5 25 c0 a7 08 84 3f 1f 50 87 bf
       0.1507678 -2.5901566 1.031514 -1.0571326
0002d0 1d b2 93 bf aa 46 35 be d9 95 a6 3e 0b 34 71 3e
       -1.1538731 -0.17702737 0.325362 0.23555009
0002e0 75 46 21 3f cb 04 fe 3d 07 a5 6f be 0a 13 52 3f
       0.62998134 0.12403258 -0.23402797 0.820603
0002f0 d7 ec a8 bd 36 c7 82 3d 63 47 cf 3e 84 fa 0e 3f
       -0.082482986 0.06385653 0.4048415 0.55851007
000300 c2 40 92 bf b9 ee 14 bf f4 7d 82 bf e3 2b 37 bf
       -1.1426013 -0.5817676 -1.0194688 -0.7155134
000310 09 00 37 3f 0a b9 39 3e 02 ce 25 bd e9 7d 11 bd
       0.7148443 0.18136993 -0.040479667 -0.035520468
000320 3b 0e 46 3e 46 fd 12 bf ea 9c d4 bf c3 39 65 be
       0.19341366 -0.57417715 -1.6610386 -0.22385316
000330 16 9c 19 3f c1 ce 18 3f d6 27 ad 3d e9 17 ff 3e
       0.60003793 0.5969048 0.08454864 0.4982293
000340 b6 d3 aa 3d f4 1b a4 bf 53 84 7f 3f cf b2 85 bf
       0.08341162 -1.2821031 0.99811286 -1.0445193
000350 c7 0e 91 bf 62 07 d8 3c 09 9d 3a 3e 84 a3 89 3e
       -1.1332635 0.026370708 0.18223967 0.26882565
000360 60 06 88 3e 15 ac 9b bf d4 bf fd 3e 8e 31 07 bf
       0.26567364 -1.216189 0.49560416 -0.5280999
000370 ce 5e dd 3e 99 18 88 bd 35 46 96 bd b5 ab cd bd
       0.43236393 -0.06645317 -0.0733761 -0.10042516
000380 2d 84 a0 bf 63 64 40 bf dd 88 8f 3f 3d ce 67 3f
       -1.2540337 -0.7515318 1.1213642 0.9054907
000390 63 64 07 3f 1f ea 8e 3e c0 51 88 be c0 b4 3a 3f
       0.5288755 0.27912995 -0.2662487 0.7293205
0003a0 7c 92 d3 be fb 85 c2 3d e2 f7 f9 3f 91 45 71 be
       -0.41322696 0.09498211 1.9528773 -0.23561694
0003b0 bb 80 9b 3e c3 06 28 3f b1 41 be 3d a2 ca c5 3e
       0.3037165 0.6563532 0.092898734 0.3863116
0003c0 75 44 e2 bd 76 06 09 3f bf d3 46 bf 1b 40 2f be
       -0.110482134 0.53525484 -0.7766685 -0.17114298
0003d0 86 49 c5 3e d3 7f 8b bf a8 b1 d2 3e 6f 3d b5 3d
       0.38532656 -1.0898384 0.41151166 0.08849608
0003e0 a3 cf fa bc 41 77 31 bd bd 98 b3 bd 3d 59 41 bd
       -0.030616587 -0.04332662 -0.08769367 -0.047204245
0003f0 76 d8 20 40 61 82 f8 bc e1 88 32 3e 67 0b 38 3d
       2.5132117 -0.030335607 0.17435028 0.04493275

model.0.bias f4 [64]
000000 07 91 0a bf bc 28 00 3e 29 7d c2 be cd 4d 1e be
       -0.54127544 0.12515539 -0.37986115 -0.15459366
000010 0d 4a 93 be 95 a3 b3 be 4d 39 73 3e 1f 94 e2 3e
       -0.28767434 -0.3508574 0.23752327 0.44253632
000020 fc 25 0a 3f 7d ab 5a 3e 1b f9 8d 3f 04 7f 04 be
       0.5396421 0.2135448 1.1091646 -0.12939078
000030 af 04 ac bc 85 35 c3 be a3 58 ad 3f 40 42 71 3e
       -0.020998327 -0.3812677 1.3542675 0.23560429
000040 0d f0 d8 bd 60 bb 64 bf e6 0a 8c 3f c7 5b 8d 3f
       -0.10592661 -0.8934841 1.0940826 1.1043633
000050 81 87 e8 be 01 68 1d 3d b7 bc 10 bf 6b 37 ba be
       -0.4541588 0.038429264 -0.56537956 -0.36370406
000060 05 b4 bf be 7f 98 ad be 20 54 e7 be 48 50 0d bf
       -0.37442032 -0.33905408 -0.4518137 -0.55200624
000070 a6 4a db be e5 2c 82 3e b0 7d 00 bf 68 1b 8b 3c
       -0.4283039 0.25424877 -0.50191784 0.016980842
000080 de e9 5f 3f fc b3 2e 3f 26 c7 ba be 33 1f d2 3e
       0.8746623 0.68243384 -0.36480063 0.41039428
000090 ed cd 7e bd ad 9c b2 3e 97 be ab be 1d eb e5 3e
       -0.062208105 0.3488516 -0.33543846 0.4490594
0000a0 be d8 ca 3d a3 d9 19 bf ce 57 83 3e b1 c8 0e 3f
       0.099046215 -0.6009771 0.25652927 0.5577498
0000b0 78 80 2d be 87 ae a9 3e d7 7a 89 3e c1 3f 89 3e
       -0.16943538 0.33140966 0.26851532 0.26806453
0000c0 0d 62 d3 bc c5 90 59 3f e9 a4 9c 3e 31 85 49 3e
       -0.02580359 0.84986526 0.30594566 0.19679715
0000d0 4b 7b 77 ba b6 b4 da 3e ab 0d 73 be 03 34 bf bd
       -0.00094406743 0.42715997 -0.23735683 -0.09336092
0000e0 6b e2 52 3e e0 d6 98 3e bd 16 11 3f 4f bb 8e 3e
       0.20594184 0.29851437 0.5667532 0.2787728
0000f0 a7 1f 3a 3e 57 52 aa be 02 60 1b 3e 84 38 9b 3c
       0.18176137 -0.33265945 0.15173343 0.018947847

model.2.weight f4 [64, 64]
000000 d0 b5 fa bd 43 6a 7c 3e 48 3f a1 3e 4e d6 9a 3f
       -0.12241709 0.2464991 0.31493592 1.2096651
000010 34 49 5e 3e 61 5b 41 bd 17 20 49 be 5e 9c 06 bf
       0.21707612 -0.047206286 -0.19641148 -0.5258235
000020 52 0d 27 bd a8 18 09 bf 03 1c e5 3e 81 63 b7 3e
       -0.040784188 -0.5355325 0.44747934 0.35818103
000030 6f 8f 84 3e ed eb bc 3f a2 e8 93 3e 5d be 29 3e
       0.2589068 1.4759499 0.28888422 0.16576524
000040 27 f2 18 3d 16 26 c3 3f 15 df 20 3d b1 c0 f7 3e
       0.03734031 1.5245998 0.039275248 0.483892
000050 f3 07 85 3f 25 fb f5 3f 56 2c dc 3e bc 0c 1d bc
       1.0393051 1.9217268 0.43002576 -0.009585556
000060 50 d2 50 3f 98 95 bb be 95 3c e6 3e 26 06 dd 3e
       0.8157091 -0.36637568 0.44968095 0.43168753
000070 b5 ee 86 3f 12 77 9d 3e ea 36 ef 3e 2b be 65 bf
       1.0541598 0.30754906 0.46721584 -0.897433
000080 b9 8f b0 bf 83 d2 90 3e 32 a8 aa 3f 26 c2 12 3f
       -1.3793861 0.28285608 1.3332579 0.57327497
000090 e3 13 53 bd 1b f2 d8 be 30 9d 35 3d de b4 30 bf
       -0.051532637 -0.42372212 0.04433936 -0.6902598
0000a0 a6 47 6f 3e 79 a7 ec 3e 30 dd cb 3e 77 73 2b bd
       0.23367175 0.46221521 0.3981719 -0.041858163
0000b0 ec 44 8c be 75 73 5a 3f c7 2d 9a be 37 5f dd 3e
       -0.27396333 0.85332423 -0.3011305 0.43236706
0000c0 d4 f5 19 3f dc d3 bf bf fc b6 af 3e b7 7f 19 3e
       0.6014073 -1.4986529 0.34319293 0.14990126
0000d0 10 e1 84 bf ed b1 ea 3e 6a e6 97 3f 80 39 80 be
       -1.0381184 0.45838872 1.1867192 -0.2504387
0000e0 f0 4b c0 3e 36 a5 c9 bc 77 89 8d 3e 4f 0d b6 3d
       0.37557936 -0.024614912 0.2764394 0.08889257
0000f0 77 fd 28 bb 19 6b f8 bc 95 d2 11 3e 03 d5 1d 3f
       -0.0025785842 -0.030324506 0.14240487 0.61653155
000100 af 4d 2b 3f a6 99 ba 3e e5 a3 94 3e 52 e2 5f 3e
       0.6691541 0.3644535 0.29031292 0.21863678
000110 e1 93 18 3f a6 27 95 3e bf 11 3f be 24 ea 30 3f
       0.59600645 0.29131812 -0.18659113 0.6910727
000120 53 a9 16 bf cb fa a9 bf 22 7b c6 3e 2c 13 84 bf
       -0.5885212 -1.3279661 0.38765818 -1.0318351
000130 8c ee 10 3f 6f 9a 93 3f 31 7e 96 3e cc 37 9a 3f
       0.56613994 1.1531504 0.2939315 1.2048278
000140 ab 2c 58 3e 40 8d cc 3e 4b ce 72 bf 57 65 76 3e
       0.2111079 0.39951515 -0.9484603 0.24062096
000150 85 2f e4 3e 3f 22 72 3f 7a f9 90 3f b5 49 79 3e
       0.44567505 0.94583505 1.1326134 0.24344523
000160 54 d9 73 3f 24 a8 b7 3f 8a b5 5a 3f 31 15 12 3f
       0.9525349 1.4348187 0.85433257 0.57063586
000170 79 88 a6 3f 5d 82 f3 bd a9 97 c1 be ff db 51 bf
       1.3010398 -0.11890099 -0.3781102 -0.8197631
000180 83 b6 38 3d 11 26 fe be f9 bd 31 3f 3a 97 be bf
       0.04509593 -0.49638417 0.694305 -1.4889901
000190 f7 0d a8 bf 92 5b c4 3e ca 4f af 3d 63 be 41 bf
       -1.3129262 0.38351113 0.085601404 -0.7568113
0001a0 ab 95 c0 3e 24 f1 64 3f b4 01 50 3e a2 6f 80 3e
       0.37614188 0.8943045 0.2031315 0.2508517
0001b0 b0 9c 8f be ea 79 bf be 71 d7 0e c0 c0 b1 8a 3e
       -0.2804923 -0.373977 -2.2318995 0.27088737
0001c0 84 7c 54 3f f1 f4 88 be 09 64 9b 3e a2 03 ac bf
       0.83002496 -0.26749375 0.30349758 -1.3438609
0001d0 75 a4 d9 be a9 2b e1 3e 15 9e 19 3f 85 08 3e bf
       -0.42508283 0.43978623 0.6000684 -0.7423175
0001e0 02 4b 5e 3e 1b 3b 8a bd 7a e3 cc 3e e9 2e eb 3e
       0.217083 -0.06749555 0.400173 0.45934227
0001f0 f8 78 e2 3d b7 c2 73 3e d9 b3 41 3e 8e 7c 90 3e
       0.11058229 0.23804747 0.18916263 0.28220028
000200 e1 d3 3a 3f b9 de 99 3e 22 fd 2e 3e ed fa 23 3f
       0.7297955 0.30052736 0.1708875 0.6405476
000210 53 2c 1f 3f 7a f1 35 3e d0 bf cd bd b9 7f cd bd
       0.6217701 0.17767897 -0.10046351 -0.10034127
000220 06 15 58 bf e0 88 9c bf 69 1f 99 3e 6e 72 5c bd
       -0.8440708 -1.2229271 0.29906777 -0.053820066
000230 ac 4a 7c 3e 25 72 b2 3f 8d f0 c6 3e e7 a4 87 3f
       0.2463786 1.3941084 0.388554 1.0597199
000240 3d 57 6a 3e f7 86 88 3f 2b 20 5c bf 14 b1 57 3d
       0.22884841 1.0666188 -0.85986584 0.05265911
000250 73 81 8c 3f 8b 95 99 3f 21 16 d2 3f 46 3a 24 3e
       1.0977005 1.1998762 1.6413003 0.16037855
000260 50 3e ab 3f 9c c5 3b 3f 4e 63 b7 3f 5b 9c fb 3e
       1.3378391 0.733484 1.432718 0.49142727
000270 5c f0 d8 3f f1 ba a0 be 31 ba 1c be 60 82 20 bf
       1.6948352 -0.31392625 -0.15305401 -0.62698936
000280 96 ce b4 be 7b 05 20 bf 04 dc 9e 3f 0d ad de bc
       -0.35313863 -0.6250836 1.2410893 -0.027182126
000290 6f 0c be be c1 df c7 3d cc f7 ca 3d 47 3f 4a bf
       -0.3711886 0.097594745 0.09910545 -0.79002804
0002a0 11 19 7b 3e ff 02 8f 3f 04 91 b6 3e 07 c5 c0 be
       0.24521281 1.1172789 0.35657513 -0.3765032
0002b0 d1 45 d6 bf a9 52 89 3e 4d be 7e bf d6 11 08 3f
       -1.6740056 0.26820877 -0.99509126 0.53152215
0002c0 bb 75 ae 3f 99 87 18 bf 90 88 fe 3e 6d f6 58 bf
       1.3629678 -0.59581906 0.49713564 -0.84751016
0002d0 76 88 09 bf 0d 9c 2d 3d d6 3f 1f 3f 6a 2a 21 bd
       -0.5372385 0.04238515 0.6220678 -0.03934709
0002e0 00 28 36 3e ce c2 36 3e 4f a6 61 3e a5 9a 62 3e
       0.17788696 0.1784775 0.22036098 0.22129305
0002f0 5c 57 a2 3e 0c cc 8c ba f1 76 53 3e 7d 53 d0 3e
       0.31707275 -0.0010741963 0.20650841 0.40688697
000300 f7 c0 ac 3e ca 94 1c bd ec c5 59 3e 9f 96 8b 3e
       0.3374097 -0.038227834 0.21266907 0.27263352
000310 e0 2b 2c 3f f5 d5 e2 be 52 79 f5 3c 1b df 96 be
       0.6725445 -0.4430386 0.029965077 -0.2946709
000320 6b 67 53 3d 0a 1b 37 bf 4f 70 e6 3e 86 d1 49 be
       0.0516123 -0.71525633 0.4500756 -0.19708833
000330 6c 21 0a be a4 f2 84 3f c0 58 a3 3e b5 64 0b 3f
       -0.13489312 1.0386548 0.31903648 0.5445054
000340 9d bf ac 3c 6b d2 c2 3f 90 f9 31 3e 03 60 61 3e
       0.021087462 1.5220464 0.17380357 0.22009282
000350 77 60 9a 3f f7 be b3 3f 34 50 15 3f 3a a8 73 be
       1.2060689 1.4042653 0.58325505 -0.23794642
000360 5f bc 98 3f e2 92 14 3f 8e 74 47 3f d6 96 a8 3e
       1.1932486 0.58036625 0.77912223 0.3292758
000370 c7 a4 fb be f4 96 e3 be 61 38 42 bf dc 5c 8c bf
       -0.49149153 -0.44451106 -0.7586728 -1.0965838
000380 0b 28 5a bf 74 1e 30 be 5d 05 9f 3f 83 0b 8f 3e
       -0.8521735 -0.17199117 1.2423512 0.2793847
000390 44 0a a1 bf 4a be 0f bf 06 90 fe 3d 6e 0a 7e bf
       -1.2581258 -0.56149733 0.12429814 -0.99234664
0003a0 93 ee f3 3e 8b 77 72 3f bb e9 1b 3e fe 93 74 3e
       0.47642955 0.9471366 0.1522588 0.2388458
0003b0 ec ae 39 bf ef ea 52 3f 8f 72 0c bf 98 ae 07 3f
       -0.72532535 0.8238973 -0.548623 0.53000784
0003c0 c7 4f 14 3f 3d 69 76 bf 96 51 64 3e f9 4e 06 be
       0.5793423 -0.9625433 0.22296748 -0.13116063
0003d0 5b d5 95 bf 73 ed f2 bc c2 fd a6 3f 0b ca 04 3e
       -1.1705736 -0.02965424 1.3046191 0.12967698
0003e0 d8 09 a0 3e de f7 1d 3e 5d b5 77 3e b4 70 da be
       0.3125751 0.15426585 0.24190278 -0.4266411
0003f0 e2 63 49 3e 5a 72 07 3d 39 79 86 3c 6d be c2 3e
       0.19667009 0.03306804 0.016415225 0.38035908

model.2.bias f4 [64]
000000 25 69 b6 3d a2 0d d6 be 79 1d 64 be d0 94 b7 3e
       0.089067735 -0.41807276 -0.22276868 0.35855722
000010 3b 1a a9 3e 47 32 d6 3d 1a 91 89 3e 36 cf b9 3c
       0.33027825 0.104588084 0.26868516 0.022681814
000020 d8 6b 58 3c 42 32 ee bd c1 38 a5 bd d2 5e 0f be
       0.013209306 -0.1163068 -0.080674656 -0.14001015
000030 01 e2 1a 3e 01 ab da 3d 45 1e 89 3e ae c6 79 3f
       0.15125276 0.10677148 0.26780906 0.97568786
000040 da c2 d9 ba c5 8b d1 3e 1b 4e 7e 3c 37 cc fd 3c
       -0.0016613856 0.40926948 0.0155215515 0.030981166
000050 54 eb 87 3e 76 a6 55 bd 94 7f cc 3c f3 5b f6 bd
       0.2654673 -0.052160703 0.024963178 -0.12029257
000060 d9 79 ae 3d 64 f8 32 bd 05 c0 82 bd 54 38 f6 bd
       0.08519334 -0.043693915 -0.06384281 -0.120224625
000070 e4 fd 78 3e d1 3f 85 3e f0 b7 ed bd be fb 43 3f
       0.24315602 0.2602525 -0.11607349 0.76556003
000080 38 6c 27 be 8e 2f 84 3d 99 b6 60 3d 01 56 07 be
       -0.16349876 0.06454383 0.05486164 -0.13216402
000090 e3 4c 84 bd 33 45 d1 3d b3 22 09 3f 53 99 50 3f
       -0.064599775 0.10218277 0.5356857 0.81483954
0000a0 3c b4 96 3c de 21 9e 3e 95 0b 12 be ce 2a c4 3e
       0.01839649 0.30885214 -0.1426223 0.38313907
0000b0 ec 6d 28 be e8 7b c8 3d 93 7e 0a be 3d d9 b7 bc
       -0.16448182 0.09789258 -0.13524847 -0.022442454
0000c0 8c da ec 3d c8 99 a1 3e d7 b1 01 3f 73 49 0f bf
       0.11565122 0.31562638 0.5066199 -0.5597145
0000d0 5d 7e 4a 3e a1 c6 14 3e 28 1d 3b 3e f0 bc 82 3e
       0.19774766 0.14528896 0.18272841 0.25534773
0000e0 ac 8d 8b 3e 1c 12 11 3c 20 63 4a 3e 97 ff e7 3b
       0.27256525 0.008854415 0.19764376 0.007080029
0000f0 95 40 4a be 60 c0 51 be e2 2f 2f bd f7 76 bc 3d
       -0.19751199 -0.20483541 -0.042770274 0.09202378

model.4.weight f4 [4, 64]
000000 6e ae e3 bf 83 08 cb be ef 7e 1f bf e6 da 28 bf
       -1.7787607 -0.3965493 -0.6230306 -0.6595901
000010 1e 8f f6 bf 77 02 bb be 52 f0 21 40 15 15 4e bf
       -1.9262426 -0.36525318 2.530293 -0.8050092
000020 b8 03 c7 bd 4c 0a 1d 3d f3 64 64 bd e2 b0 48 bd
       -0.09717506 0.038339898 -0.055760335 -0.048996814
000030 8a b7 bf bf fd 68 04 bf 0e cf 16 c0 23 87 f1 3f
       -1.4977887 -0.517227 -2.3563876 1.8869365
000040 06 cb 79 3d 9f 07 39 3f ca 82 90 bf 3b 06 fd be
       0.060984634 0.72277254 -1.1289914 -0.49418816
000050 83 ea c3 bf ef 6e 94 3d 4a ad a3 bf f8 7d 00 3c
       -1.5305942 0.072477214 -1.2787259 0.007842533
000060 58 dd 41 bf 51 58 0c 3f 9d 97 93 bf d9 22 a5 bd
       -0.7572837 0.5482226 -1.1530644 -0.08063287
000070 62 64 8f bf 9e f6 da bf b0 42 dd be 7e 0e 0d 40
       -1.1202509 -1.7106512 -0.4321494 2.2040095
000080 17 c1 ff be 30 84 ce bf aa 0e 30 bf 82 07 c7 bd
       -0.49952003 -1.613409 -0.68772376 -0.09718229
000090 00 d6 e4 be fd e5 63 bf 5d 8e 4d c0 69 cc ad 3f
       -0.4469452 -0.8902281 -3.2118142 1.3578006
0000a0 2f 90 07 bf fd e9 0d be fb 9f 99 be 3a 44 f4 3f
       -0.5295438 -0.1385879 -0.30004868 1.9083321
0000b0 ea b5 0a 3c cc f3 05 bd 17 55 19 bf bf 10 85 bd
       0.008466223 -0.032703206 -0.5989546 -0.06497335
0000c0 ab 69 1b bf a8 22 fa bd ce c1 56 bf f1 8d 3c c0
       -0.6070811 -0.122136414 -0.8388947 -2.9461634
0000d0 4e 62 c2 bf 11 d0 b6 be 3b 10 84 bf eb 31 65 3f
       -1.518625 -0.35705617 -1.0317453 0.89529294
0000e0 b3 ba b3 bf 7c 40 8a bf 91 91 fe bf 57 58 a5 be
       -1.4041351 -1.0800929 -1.9888173 -0.3229396
0000f0 05 08 7a bf cc b6 e7 be ae 73 9c 3d 08 ad 7c bf
       -0.97668487 -0.4525665 0.07639252 -0.98701525
000100 13 97 a6 bf 22 58 29 bf 97 fb c0 be a7 67 a7 bf
       -1.3014854 -0.66150105 -0.37691948 -1.3078507
000110 40 52 bf bf 81 47 fa be 78 25 3d 40 eb 1e 17 bf
       -1.4946976 -0.48882678 2.955412 -0.5903155
000120 2a fc e3 3d 3e d9 a3 bd 2c 57 c5 bd f4 43 89 bd
       0.11132081 -0.0800042 -0.09635767 -0.06702414
000130 7b a7 fc bf e9 a5 b4 bf f2 61 7c 3d 22 e7 dd 3f
       -1.9738611 -1.4113132 0.061616845 1.7336161
000140 70 1b f0 bc 0c 46 24 3f 23 db 64 bf 50 07 32 bf
       -0.029309958 0.64169383 -0.89396876 -0.6954241
000150 68 32 8e bf be 04 d5 3d ca 14 74 bf 61 ca 2e bd
       -1.1109133 0.10401295 -0.9534422 -0.042673472
000160 a4 36 37 bf 58 48 0e 3d 44 73 a6 bf c4 1f b8 3c
       -0.7156775 0.03473696 -1.3003926 0.022476085
000170 70 b8 86 bf e3 12 a3 bf 2d 39 72 bf c6 d6 ec 3f
       -1.0525036 -1.2740139 -0.94618493 1.8503044
000180 12 81 16 bf 28 a9 88 bf 7e 82 83 bf cc 87 ff 3d
       -0.58790696 -1.0676622 -1.0274198 0.12477073
000190 fa 22 60 bf 7e 9a b6 bf a5 ea 3c c0 73 d1 cb 3f
       -0.8755337 -1.4265897 -2.9518216 1.5923294
0001a0 1c a4 47 bf b3 58 2c bf f1 07 3a bf 0f 9e 03 40
       -0.77984786 -0.67322844 -0.7266837 2.0565221
0001b0 72 00 bc bd 60 1a 2f 3c 28 ea 8c 3f c6 ee 58 bd
       -0.091797724 0.010687441 1.1008959 -0.052962087
0001c0 54 3e 36 bf 1b 16 0f bf 3d 1c ff bf 8f 36 0a c0
       -0.71188855 -0.55893105 -1.9930493 -2.15958
0001d0 34 aa 6c bf 80 47 5b be 89 0f 87 bf 99 88 7a 3f
       -0.9244721 -0.21413994 -1.0551616 0.9786468
0001e0 c2 ea b7 bf e8 29 c2 be ec 1c 03 c0 b1 dd 1b bf
       -1.4368517 -0.37922597 -2.0486403 -0.6088515
0001f0 2b 54 57 bf 8d 19 4c be d8 97 f9 3d 4c fe 8f bf
       -0.84112805 -0.19931622 0.12187165 -1.124948
000200 4d 0d 4d bf c4 48 14 bf 14 ea 70 bf 92 ea 46 bf
       -0.8009842 -0.5792353 -0.94107175 -0.77701676
000210 70 bd dd be f3 3c d6 be 10 19 34 40 40 db 52 be
       -0.43308592 -0.41843376 2.8140297 -0.2059145
000220 c4 9f 8e 3d 80 f6 73 3d 49 8e 59 3d 85 cc 81 3b
       0.069640666 0.059561253 0.05311421 0.003961148
000230 32 fd 22 bf dd 8d 60 bf 79 94 da bf 31 e3 ad 3f
       -0.63667595 -0.87716466 -1.707656 1.3584958
000240 c1 dd 6b 3c 2e 1b 14 3f fd e4 6f bf 5d f7 16 bf
       0.014396132 0.5785397 -0.93708783 -0.58971196
000250 dd 7a 4c bf 05 10 9e 3d 16 54 71 bf 85 0e 30 3d
       -0.79874974 0.07717899 -0.9426893 0.042982597
000260 6e c0 6a bf c1 ae b6 3f 06 11 97 bf d5 4f 9a bd
       -0.91699874 1.4272081 -1.180207 -0.07534758
000270 6c d5 b3 bf be 1d d2 be f3 b2 61 bf 78 69 f3 3f
       -1.4049506 -0.41038316 -0.8816368 1.9016562
000280 1a 31 db be 3e 7b 78 bf e9 d6 68 bf 90 32 4f bd
       -0.428109 -0.9706305 -0.90952927 -0.05058533
000290 25 36 c3 be 14 8f 68 bf c8 51 0d c0 8a c3 d5 3f
       -0.38127246 -0.9084332 -2.2081165 1.6700299
0002a0 10 2f 1b bf 0a ef d8 bf c0 cc 42 bf 3b 95 0b 40
       -0.60618687 -1.6947949 -0.76093674 2.1809833
0002b0 bc 6d 5f 3b c0 fa 4d bb cc 2f ba be 3a 63 be bd
       0.0034092506 -0.0031429976 -0.3636459 -0.0929627
0002c0 22 12 3b bf 33 a5 06 c0 59 6e bd bf 5c d3 24 be
       -0.73074543 -2.103833 -1.47993 -0.16096252
0002d0 a7 0a 9b bf e7 71 01 c0 b0 92 b3 be bb e3 81 3f
       -1.2112626 -2.022577 -0.3507285 1.0147623
0002e0 39 e0 d8 bf fb 4c 80 bf c1 e6 ae bf ba ca aa be
       -1.6943427 -1.0023493 -1.366417 -0.33357793
0002f0 f5 29 16 bf 49 03 53 bf c9 43 0a 3d 43 d1 9d bf
       -0.5865777 -0.8242689 0.03375605 -1.2329487
000300 8b 91 99 bf 06 f0 7d be 57 6f 51 bf b2 1a 70 bf
       -1.1997541 -0.24798593 -0.81810516 -0.93790734
000310 34 52 fe bf 47 6e 1e bf 8e 1e 15 40 2f ce 86 bf
       -1.9868836 -0.6188702 2.32999 -1.0531672
000320 50 47 93 3c 73 66 e5 bc 77 96 26 bb 17 72 cb bc
       0.01797834 -0.028002953 -0.0025419274 -0.024834676
000330 cc fe 92 bf b7 f5 5f bf e9 ca f3 bf ce 41 0e 40
       -1.1484008 -0.87484306 -1.9046298 2.2227664
000340 cb 21 58 bc 5e 33 9c 3f e8 3c 28 bf 43 8a 39 bf
       -0.013191651 1.2203176 -0.65717936 -0.72476596
000350 7d d6 e9 bf 2d f7 65 bd f4 93 9e bf ac 1c 1a bc
       -1.8268582 -0.05614393 -1.2388902 -0.00940625
000360 df a7 1e bf 15 13 73 3f 68 1b 50 bf e4 60 7d bd
       -0.619749 0.9495099 -0.8129182 -0.06185998
000370 13 44 38 bf ab 88 f3 bf 69 2b cf 3c 69 a6 d1 3f
       -0.71978873 -1.9026083 0.025289254 1.6378909
000380 2f 9b 1f bf 7d 53 14 bf a9 4d 88 bf 01 bd 75 bd
       -0.62346166 -0.57939893 -1.06487 -0.0599947
000390 76 2e d7 be b0 fd 98 bf b3 6e 37 c0 92 42 a0 3f
       -0.42027634 -1.1952419 -2.8661315 1.2520316
0003a0 cf 7a 17 bf 06 87 ce be d9 43 ed be 8d 93 09 40
       -0.59171766 -0.4033739 -0.46340826 2.1496308
0003b0 b9 ee 1a 3d 90 64 f3 bd e0 e4 fc bf 94 5c 13 bd
       0.03782532 -0.11884415 -1.9757347 -0.03597696
0003c0 e2 1d 13 bf e3 8e 5a bf 93 2e 36 bf b8 22 49 c0
       -0.5746747 -0.8537428 -0.71164817 -3.142744
0003d0 a8 65 e4 be 46 6a 31 be 05 f8 96 bf 40 16 d6 3e
       -0.44608808 -0.17325696 -1.179444 0.4181385
0003e0 43 c9 f3 bf ba b7 14 bf 69 2f 07 c0 e3 ab 37 bf
       -1.9045795 -0.58092844 -2.1122687 -0.71746653
0003f0 e6 de 04 bf 60 a7 b8 bf e0 e7 7b 3d b6 ac 7f bf
       -0.51902616 -1.4426079 0.06150043 -0.9987291

model.4.bias f4 [4]
000000 e4 91 18 3d 5b 48 ea 3d 45 8d ea 3e ba cc 53 3e
       0.037248507 0.11439582 0.45810905 0.20683566
